memo/data/rose_128x4/rose_128x4_s0/pyt_save/model.pt (torch, 705862 bytes, 29 tensors)

log_std f4 [2]
000000 af 3f 05 c0 87 c5 01 c0
       -2.082012 -2.027681

weight f4 [128, 60]
000000 2d 29 2d 3d 9c f8 24 3e a5 61 99 bd de 71 dc bc
       0.042275596 0.16110462 -0.07489327 -0.026909765
000010 e2 c0 e4 bc 2b 57 eb 3c 00 c9 a0 3e 0c ac a2 3e
       -0.027924005 0.028728088 0.3140335 0.31771886
000020 96 fa c9 3d 48 5f 03 ba 85 d4 9f bc 97 d9 91 3e
       0.098622486 -0.00050114514 -0.019510517 0.2848632
000030 8b ff 48 bd ac 0c 2d bd a1 f1 00 be a0 d9 3b be
       -0.04907183 -0.042248413 -0.12592174 -0.18344736
000040 07 f2 22 3e 40 ab 85 3e 98 91 45 3d db 44 66 bd
       0.15912639 0.26107216 0.048234552 -0.05621801
000050 e9 10 40 3d b0 13 23 3e 0b 99 1c 3d 31 4f 08 3e
       0.046891127 0.15925479 0.03823189 0.13311459
000060 f9 ca fe bc fb e6 88 3d fb 09 a5 3e 47 c4 6a be
       -0.031102644 0.06684681 0.32234177 -0.22926436
000070 51 4d 9a bd a4 9e b8 3c cd 0f d8 bd 50 19 f4 3d
       -0.07534278 0.022536583 -0.10549889 0.119188905
000080 0a ea 13 be eb de 32 3d f1 04 9a 39 50 4b 8b bc
       -0.14444748 0.043669622 0.0002937685 -0.017003685
000090 c3 19 bc bd 37 f2 34 3e d8 4e 55 3d 90 1d 62 3e
       -0.09184601 0.17670523 0.052077144 0.2208159
0000a0 cd 7a de 3b 56 d6 37 3d 07 93 6f bc cf 67 1d 3c
       0.0067895413 0.04488214 -0.014622456 0.009607269
0000b0 ac d7 1f 3c 68 5d 64 3c 08 ca 21 3e bd 14 82 3e
       0.00975601 0.013938285 0.15799725 0.25406447
0000c0 35 04 be bc ce 3c b9 3d f0 fc a0 3e 68 b3 e8 3d
       -0.023195365 0.09044801 0.31442976 0.11362344
0000d0 15 89 fc 3d 78 8c 97 bc 01 26 ca 3d 36 c8 3e bd
       0.12330834 -0.018499598 0.0987053 -0.046577655
0000e0 d6 bb 1d 3c 57 49 bc bd 51 8d 32 be 1c 95 88 bd
       0.009627303 -0.09193676 -0.1743672 -0.06669065
0000f0 40 d7 38 3e 7e 56 5a 3e e9 c4 4c bd 4c 3f 0e 3d
       0.18050861 0.21322057 -0.049992476 0.034728333
000100 3b 09 2e 3d 52 5c a9 ba 69 20 20 3e 18 c9 61 bc
       0.04248927 -0.001292119 0.15637363 -0.013780855
000110 f1 a6 57 bc eb f1 15 3e 32 1c 99 3c c5 9b 13 3e
       -0.0131623605 0.14643066 0.018690202 0.1441489
000120 e4 72 a2 3d b3 bb 66 3e 50 80 bc 3d 59 05 d1 3d
       0.0793207 0.22532539 0.09204161 0.10206098
000130 d7 92 f5 3d e5 5b 2d 3c 4a 9d 94 bd 47 68 a5 bd
       0.11990898 0.010580991 -0.07256563 -0.0807653
000140 96 67 f6 bd fe dd f6 3d da 5b 02 3e b2 92 8e bd
       -0.12031476 0.120540604 0.12730351 -0.06961574
000150 02 f2 7a 3d a7 42 1d bc 33 3e 87 bc e2 36 4d 3d
       0.061265953 -0.009598411 -0.016509151 0.05010117
000160 2f 47 00 3e 85 6d fc bd b5 29 9c 3d eb d0 92 3d
       0.12527154 -0.12325577 0.076251425 0.07168754
000170 60 36 90 3d b5 0a 1e 3e e2 98 4e be 10 74 18 be
       0.07041621 0.15433772 -0.20175508 -0.14888024
000180 21 71 25 3e 88 0f 23 3e b4 9c dd bd c8 45 37 be
       0.16156437 0.15923893 -0.108209044 -0.17897713
000190 e3 ba f8 3d 74 13 53 3e 89 d9 83 bc 68 58 b2 bd
       0.12145021 0.2061289 -0.01609494 -0.087082684
0001a0 7f 64 99 be 08 b3 fa bb d5 6f ab bd 6e ce a9 bd
       -0.29959485 -0.0076507367 -0.0837094 -0.082913265
0001b0 69 b2 09 3e 44 b3 19 be 34 52 74 be 86 0d e0 3e
       0.13446964 -0.1500979 -0.23859483 0.43760318
0001c0 ed b2 00 3e e0 91 ed 3d 81 2a 73 bb ac e5 09 be
       0.12568255 0.11600089 -0.0037104192 -0.13466519
0001d0 7e 1a 93 3e b2 11 81 3c ba 63 c5 be d6 d4 fa 3c
       0.2873115 0.015755508 -0.38552648 0.030619066
0001e0 aa 48 a0 3d d7 12 a4 3d f1 e2 2a bd 48 7b a4 3c
       0.078263596 0.08011406 -0.041720334 0.020078316
0001f0 91 70 a3 3c 53 8f a2 bd 39 81 18 bd 99 63 c8 3d
       0.019951137 -0.07937493 -0.03723261 0.09784622
000200 72 ed 25 bd 9e 08 7f be b8 9d f7 bd 3c 32 0e bd
       -0.04050965 -0.24905631 -0.12090629 -0.034715876
000210 1e 3f 36 be 16 f8 28 bd 80 fe 18 3d a9 0a b2 3d
       -0.17797515 -0.04125222 0.037352085 0.086934395
000220 57 71 85 3d fe de 36 3e e8 da ca 3c fa 1c a8 3d
       0.065157585 0.17858502 0.024762586 0.08208652
000230 a2 72 fa 3d ed cc 05 3e 69 a1 2e 3e ae ef 86 3d
       0.12228896 0.13066454 0.1705376 0.06588684
000240 3a 86 7e bd ff e4 b8 bc 76 63 52 3e 18 5e 07 bd
       -0.062139727 -0.022570131 0.20545754 -0.03304872
000250 a0 8d db bd 06 47 05 3a cd 02 2f be 46 12 a7 bd
       -0.10720372 0.00050841307 -0.17090912 -0.08157782
000260 7c c5 80 bb 06 ce 50 3e 16 bf dd 3d f3 c1 af bd
       -0.003929792 0.20391092 0.108274624 -0.08581915
000270 4c 2d c7 3d af cb 25 bd f3 ec 98 3c 8b d9 3b bd
       0.097254366 -0.04047745 0.018667674 -0.045861762
000280 e2 b4 cb bc 00 20 64 3b e6 03 ba be 43 db f3 bd
       -0.024866525 0.0034809113 -0.363311 -0.11907055
000290 92 b9 7b 3d 33 0b da 3d e7 21 f2 bc 05 53 0c bd
       0.06145627 0.10646667 -0.029557182 -0.03425886
0002a0 92 39 9b bd 00 de 00 be 81 ee d4 3e 2a dc 58 be
       -0.0757934 -0.12584686 0.41588214 -0.21177736
0002b0 98 46 1a 3e cc ec ba 3d 8d 3d 8d 3d 31 27 2a 3e
       0.15065992 0.09127197 0.068965055 0.16616513
0002c0 12 ee f7 bb 92 8a 29 bd 8d 95 ac bd 29 a8 d5 bd
       -0.007566222 -0.041391917 -0.08426962 -0.10432465
0002d0 80 38 7c 3c c6 6c 6c bd 66 6e a2 3d 42 52 2a be
       0.01539433 -0.057720922 0.07931213 -0.16632941
0002e0 39 40 ec bb 09 0b 15 3e 3c 7f 8c bd ad 89 9f bd
       -0.0072098044 0.14554991 -0.068602055 -0.077899314
0002f0 7a b9 b2 bd 69 16 d8 3d b8 55 b8 3e ee 05 5c 3e
       -0.08726783 0.105511494 0.36002898 0.21486637
000300 c8 85 d5 bd 6b b8 1b 3e 2c 01 33 be 27 fa 42 be
       -0.104259074 0.15207069 -0.17480916 -0.19040738
000310 3c d7 ea 3c e3 e9 c4 3e ac b4 74 be 87 96 38 bb
       0.028667085 0.3845969 -0.23897046 -0.0028165893
000320 4a f6 b1 3b 48 c1 3c 3e ae eb 5c be 99 68 34 be
       0.0054309713 0.18433106 -0.2157428 -0.17618026
000330 d1 20 01 be 50 91 13 be 85 eb 93 3d 0e aa 2f 3e
       -0.12610175 -0.14410901 0.07222656 0.17154714
000340 78 d9 0e be ce 78 4a 3d 5b d0 4c bd fe ba cd 3c
       -0.13950145 0.049431615 -0.05000339 0.025113579
000350 b8 82 75 3b 7c cd c8 bc 0d 25 eb 3c ae 86 ba 3d
       0.0037461948 -0.024512045 0.02870419 0.09107719
000360 0d 63 ab bd c7 cb fd bd a6 c6 57 3e 93 e9 e8 3c
       -0.08368502 -0.12392383 0.21071872 0.02843169
000370 c8 e1 17 bc 66 c5 6a 3e 1b d4 ed 3b 31 2a 85 3d
       -0.009270139 0.22926864 0.007257951 0.06502188
000380 03 72 46 be 6c ea 28 3e 74 b9 2c 3e de d6 5a ba
       -0.1937943 0.16495675 0.1686762 -0.0008348058
000390 70 98 81 be fd f1 43 be 9f 1a 2e 3d e5 30 a0 3d
       -0.25311613 -0.1913528 0.042505857 0.07821826
0003a0 15 d7 23 bc be 23 24 3e 01 2c 1e 3e 44 16 22 bd
       -0.01000001 0.1602926 0.15446474 -0.039572015
0003b0 09 44 20 3e 35 0d 37 be 26 5a a9 3d 8f 87 1b 3d
       0.15650953 -0.17876132 0.082691476 0.037971076
0003c0 ad 79 00 3e 66 23 87 3e e7 c5 41 bd 26 d8 5b bd
       0.12546416 0.26394194 -0.047307875 -0.053672932
0003d0 f4 70 82 bd 19 77 7c be 61 d4 96 3e b5 51 2e 3e
       -0.063692 -0.24654807 0.29458907 0.17023356
0003e0 a1 a0 b0 3d 37 48 cf 3b 0f 07 13 bd 71 02 d2 3d
       0.086243875 0.0063257474 -0.035895403 0.10254372
0003f0 18 61 2a 3e 0e 3e ee bd b5 6a 7d be 1d a2 a2 bd
       0.16638601 -0.1163293 -0.24747737 -0.07941077

bias f4 [128]
000000 82 7b 72 3d 64 78 00 3d aa 12 dd 3d 7b 1e 0f be
       0.059199817 0.031364813 0.107945755 -0.13976471
000010 9d c6 73 3d 28 38 8b bd f1 6c 1f 3e a9 5c cd bd
       0.059515584 -0.0679782 0.15568902 -0.10027439
000020 c2 2f 8d 3b 8c a4 ea 3c 30 10 49 3d 25 b2 ae 3c
       0.0043086717 0.028642915 0.049087703 0.02132518
000030 d2 7b 4e 3c 3e d9 ef 3c 6d 64 de bd c4 8e 32 bd
       0.012602763 0.029278394 -0.108589984 -0.043593183
000040 4f df c2 3c 82 fd f9 3d cb b8 da bd 8e cc 84 bc
       0.023788122 0.12206556 -0.10679778 -0.01621082
000050 79 6e d7 bd d5 d9 df bd a7 7e 8d bd e1 23 59 3b
       -0.10519118 -0.1093022 -0.06908923 0.0033132958
000060 ae 13 7e 3d 5d 06 2c bd 69 69 89 3d f8 22 5e bc
       0.062030487 -0.041998256 0.067095585 -0.013558142
000070 a9 c1 c4 bd a9 b2 37 3d a2 8a 35 3c 08 62 da bd
       -0.0960725 0.044848118 0.011080416 -0.10663229
000080 3a a1 d3 bd d3 c0 76 3c f2 44 a2 bd c9 6b e1 3c
       -0.10333486 0.015060621 -0.079233065 0.027517216
000090 1e 91 62 bc d1 fe 10 bd 73 d7 44 bd 1c 4e 03 3e
       -0.013828544 -0.03539926 -0.04805703 0.12822765
0000a0 7f 77 cc bd 69 09 8c bd c0 13 a2 3b bf ee 2b bd
       -0.099837296 -0.06837732 0.004946202 -0.041975733
0000b0 8f b0 4b 3d 0c 4c f0 3d 81 43 e0 3d be 79 70 bd
       0.049728926 0.11733255 0.10950375 -0.058709852
0000c0 81 9d 97 bd cb c7 da 3c 5b c1 9a 3d 3c 7c f2 bd
       -0.07403088 0.026706597 0.07556411 -0.11840102
0000d0 f5 a5 9b bd 9c a9 38 bd 49 e3 19 bc 65 a3 ea bc
       -0.07600013 -0.045083627 -0.009392568 -0.028642366
0000e0 8c e5 b2 bd 3a e3 f8 bc b1 d9 24 bd b4 6d ed 3c
       -0.08735189 -0.030381788 -0.04024667 0.028982975
0000f0 7f d3 7d 3a ae d0 e3 bc 8a 2f ce 3d c6 ad e3 bc
       0.00096826995 -0.027809467 0.10067661 -0.027792823
000100 f1 ef a8 3d 91 1e 01 be c8 5e 40 bd f0 87 60 3d
       0.0824889 -0.12609316 -0.04696539 0.05481714
000110 65 6c 64 3d bd 48 f7 bd 62 e7 e2 3d e4 4c 20 bd
       0.055767436 -0.120744206 0.11079289 -0.03913583
000120 b8 95 1c bd dd 48 4f bd 4f 00 88 3d 8c bf bf 3c
       -0.03822872 -0.050606597 0.06640684 0.023406766
000130 74 81 0c 3d 51 9c b5 bc 1f b8 ea 3d c9 0b 24 3d
       0.034303144 -0.022169264 0.114608996 0.0400503
000140 f3 22 2d 3d e1 2a 18 bd 46 7f c4 bd 0f dc e6 3d
       0.04226966 -0.037150268 -0.09594588 0.112724416
000150 12 28 1a be cb 74 de bd 49 50 7c bb 0a 65 f1 bc
       -0.15054348 -0.1086212 -0.0038500002 -0.029467124
000160 c8 89 8a bd 2d a2 9b 3d cf 9b 0b 3d 32 1f 62 bd
       -0.06764561 0.07599292 0.034084138 -0.05520553
000170 dc b1 e1 3d 99 67 2e 3d 90 63 85 bd a5 dc f4 bc
       0.11020252 0.042579267 -0.06513131 -0.029890368
000180 5c b1 b0 bd e2 03 73 bd ff 60 4d 3d b6 88 95 bb
       -0.086275786 -0.059329875 0.05014133 -0.0045634164
000190 72 3f 95 bc 7a fa 1d bd f6 f1 f0 bd ff 4d 54 bd
       -0.01821873 -0.03856895 -0.117649004 -0.051832195
0001a0 f6 2b 6a bc ac 79 51 3c 31 0a af 3d 56 30 ae 3d
       -0.014292708 0.0127853565 0.08546866 0.08505313
0001b0 94 5b bb 3d 7e 71 25 3d db d7 8b bd 95 a9 16 bd
       0.091483265 0.040391438 -0.068282805 -0.03678282
0001c0 8d ea 00 be a9 1c 4d 3b 5f 7f 8d 3d d5 c5 13 3c
       -0.12589474 0.00312976 0.0690906 0.009019335
0001d0 13 9f c7 3c c7 c9 82 3d 3c 61 b1 3d c6 59 37 bd
       0.024367845 0.06386142 0.08661124 -0.04476335
0001e0 af 2a 0e 3e 27 cd 4d 3d 4e 8b b3 bd bb 9f d2 bb
       0.1388347 0.050244477 -0.08766805 -0.0064277328
0001f0 af 4f 23 3d 13 24 15 3d 8e e1 b3 3d 27 b5 67 bd
       0.039870914 0.036411356 0.087832555 -0.056569245

weight f4 [128, 128]
000000 6f e3 f2 3c 18 82 b1 3d 36 10 3b bd f5 c2 cb bc
       0.029649464 0.086673915 -0.045669757 -0.024873236
000010 f0 a3 c4 3d b8 36 92 3d f3 b1 33 3e 19 60 be bc
       0.09601581 0.07139343 0.17548351 -0.023239182
000020 49 22 66 3d 4d 7e 57 bd bd 93 a9 bd f8 1a e9 3c
       0.05618504 -0.052610684 -0.08280132 0.028455243
000030 43 bf 1c bd 2b 13 72 bd c2 96 bd 3b 80 05 d0 3d
       -0.03826834 -0.05910031 0.005785794 0.10157299
000040 cc f0 41 bd 63 c4 7b 3d 79 fa 07 3d a2 ef af 3d
       -0.047348782 0.061466586 0.033197854 0.08590628
000050 0e 7f e5 ba 5b 3a 21 3d 66 7d 8b bc fb f8 ab bd
       -0.0017509179 0.039362293 -0.017027568 -0.08397099
000060 8d 7d ac 3d 6b be 0a 3c fb bd a9 bd 47 d8 fb 3d
       0.084223844 0.008468251 -0.08288189 0.12297111
000070 0d 79 01 3d 10 d1 b6 bc 12 76 1e 3d 76 8f 84 3d
       0.031609584 -0.022316486 0.03868682 0.064726755
000080 56 1b 8d bd b8 b6 c6 3d 59 12 29 bd 89 75 45 bd
       -0.068899795 0.097028196 -0.041277263 -0.048207793
000090 04 45 cc bd 82 22 3d bb 52 e1 da 3d 58 6b ba 3d
       -0.09974101 -0.002885968 0.10687508 0.091025054
0000a0 21 7c d6 3d df 87 a8 3d 2f c8 aa bb a4 c3 da bd
       0.104728945 0.0822904 -0.005211852 -0.10681847
0000b0 28 85 36 bd 1d 09 4c 3b a0 fe da 3c 25 4b d3 3d
       -0.04456058 0.0031133362 0.026732743 0.10317067
0000c0 73 8d 60 bd f7 13 07 bd 8b 6c 43 3d d9 02 83 3d
       -0.054822396 -0.032978024 0.047710937 0.063970275
0000d0 4e b6 51 bd 00 89 8d 3c cb 90 a5 bd df 41 76 bd
       -0.05119925 0.01727724 -0.08084258 -0.060121413
0000e0 d4 70 fb bc 3a 9d aa 3d 63 68 b0 3d 38 19 10 3d
       -0.03069345 0.0833077 0.0861366 0.0351803
0000f0 b0 c0 83 3d cb 2a 66 bd 1c f3 81 3c 49 04 6e 3d
       0.064332366 -0.056193154 0.015862994 0.058109555
000100 bb 3a 5c bd 58 0d 0f 3d 1e 08 07 be a6 60 7a 3d
       -0.053766947 0.034924835 -0.1318669 0.061127327
000110 8a 72 81 3d 5e 8f c3 3d 50 ee dc bc 42 70 00 3c
       0.06320675 0.095488295 -0.026969105 0.007839264
000120 2d 44 8b bd 13 b6 4e 3d aa 2b 08 bd d7 3b 82 3c
       -0.06800113 0.05046661 -0.033244766 0.015897674
000130 aa f7 14 3d 6c e9 19 3d bf 1f a7 bd f4 d9 e4 bc
       0.036369003 0.037576124 -0.08160352 -0.02793596
000140 72 0b 8c bd d9 8a 9c 3d 27 c4 a4 3c f5 41 7a bd
       -0.068381205 0.076436706 0.020113064 -0.061098058
000150 97 d8 85 3c 18 2a 5f bd 02 6f 72 3d 28 2f aa bc
       0.01633863 -0.054483503 0.059187897 -0.020774439
000160 36 a5 07 3e c7 91 98 3c 6b 84 f6 3d ed 4a a2 3d
       0.13246617 0.0186242 0.120369755 0.07924447
000170 3f 0e cd bc 0c 7d c2 3d 1c 52 42 bc 92 8a 32 bd
       -0.025031207 0.09496507 -0.011860397 -0.043589182
000180 89 00 6a 3d fa fa 38 3d 24 20 a0 bd 0f 65 9a bc
       0.057129417 0.045161225 -0.0781863 -0.018847017
000190 82 16 90 3d fe b8 94 bd df 8c 2b bc cf a3 43 3c
       0.07035543 -0.07261847 -0.010470598 0.0119409105
0001a0 47 98 d1 bd 29 cb 85 3c 28 ce f9 bd 95 f6 83 bd
       -0.10234123 0.016332226 -0.12197524 -0.06443516
0001b0 c7 07 25 3d 23 a7 2c 3d 56 5c 03 bd c4 20 fb bd
       0.04029062 0.04215158 -0.03207048 -0.12262109
0001c0 d5 3d e4 3c e8 50 ce 3d 51 fc f1 bc 22 b0 bc 3d
       0.027861515 0.100740254 -0.02953926 0.09213282
0001d0 e8 f2 a4 3d 5e 1a db bc 60 91 b0 bc 30 af d7 3d
       0.08054143 -0.026745971 -0.021553695 0.10531461
0001e0 7d 49 3d bc 79 f8 33 bc 91 68 5d bc 2b 58 bc 3c
       -0.0115531655 -0.0109845335 -0.0135137 0.02299126
0001f0 d0 b0 e9 bb 3e 69 07 bd 62 41 45 3d a9 01 84 3d
       -0.0071316734 -0.03305935 0.048158057 0.06445629
000200 aa 20 10 3d 45 88 ae 3d 3b 04 a9 bc 18 ad 88 3d
       0.0351874 0.08522085 -0.0206319 0.0667364
000210 f9 e4 17 bd 91 c8 98 3d bb b1 23 3e 64 13 dd 3c
       -0.0370836 0.0746013 0.15985768 0.026986785
000220 de f2 28 3b 7b 0c d2 3d a6 3b 44 3d 0d 1f 3a 3d
       0.0025779526 0.10256287 0.047908448 0.04543977
000230 3e ca be bc a9 91 9a bc 6f fb 6d 3b ce 80 4d bc
       -0.023289796 -0.018868284 0.0036313196 -0.012542916
000240 c3 89 61 bc 7f 48 d1 3d 85 10 59 3d 62 30 2d bd
       -0.013765755 0.10218906 0.05299427 -0.04228247
000250 c0 83 85 3d 2e df c0 bb f3 34 11 3e ba 6f 1a be
       0.0651927 -0.00588598 0.14180355 -0.15081683
000260 11 a4 29 3d 2c 0b 9e bd b2 f5 e3 b8 f7 18 ee 3d
       0.04141623 -0.077169746 -0.00010869968 0.116258554
000270 64 be 87 3d ce 93 6f bd 79 84 94 3c a1 39 cc 3c
       0.06628111 -0.058490567 0.018129574 0.024929823
000280 59 c4 4e bd ac 1f ae 3d 27 be 8a 3d 2a 11 ee 3d
       -0.05048022 0.08502135 0.0677455 0.116243675
000290 fb d3 3e bd 29 fd 4c 3d 1a 49 fc bc b6 bd e7 bc
       -0.04658888 0.05004612 -0.030796576 -0.028288703
0002a0 83 35 99 bc b4 f4 11 3c 92 bb 53 3d 1f 4b 48 3c
       -0.018702274 0.008908439 0.051692553 0.0122249415
0002b0 05 cb b9 3d 9c 48 01 bc 0d a0 e0 3d ab 39 de 3d
       0.09071926 -0.007890847 0.10968027 0.10850843
0002c0 18 e9 f1 bd 00 7d 04 3e ca a2 89 3c 33 34 af 3c
       -0.11812037 0.12938309 0.016801257 0.021387195
0002d0 30 10 a1 3c 8a 98 50 3d 2d c8 9c bc 6b 36 9e bc
       0.01966104 0.050926723 -0.01913842 -0.019313058
0002e0 5a c8 60 bd 98 f1 f4 3b 8a 3b 42 3d e7 f6 73 bd
       -0.05487857 0.0074750893 0.047420062 -0.059561636
0002f0 05 44 33 3d 52 b7 a4 bd b8 db e8 3d 44 7a 84 bd
       0.04376604 -0.08042778 0.11370033 -0.06468633
000300 e5 3f c1 3d ed 59 11 bd 01 69 02 be be c7 64 3c
       0.09436015 -0.03548615 -0.12735368 0.013963638
000310 01 cc 72 bd ea 79 ea bc 04 b5 6e 39 69 4a 5c bc
       -0.059276585 -0.028622586 0.00022764882 -0.013445475
000320 21 33 13 3d af ec 2d 3d c3 ca 91 bd a1 7e d0 3d
       0.035937432 0.042462047 -0.07118752 0.101804025
000330 d3 2e f8 bb 16 84 25 bc 87 a5 73 3d 34 50 79 bc
       -0.0075739413 -0.0101022925 0.05948403 -0.015216876
000340 b0 35 96 bd 02 8f d0 bb b8 81 d7 3c 78 ec f3 bb
       -0.07334459 -0.006364704 0.026306972 -0.0074439608
000350 ad 05 bd 3d a6 e5 f1 bb b2 c6 b4 bd d4 da a0 bd
       0.09229598 -0.0073821126 -0.088269606 -0.07854238
000360 ac aa 26 3d 5a c0 a6 3b fd a5 0f bd f7 9a 11 3d
       0.04069011 0.005088848 -0.035070408 0.035548177
000370 16 40 bb 3d ee 81 fb 3b 35 8c 5a 3b 08 96 5a 3d
       0.09143083 0.007675401 0.003334773 0.053365737
000380 f3 d4 23 3d 0b f2 e4 bc 74 48 d8 3c b1 55 07 3d
       0.039998006 -0.027947446 0.026401736 0.033040706
000390 14 16 b2 bd bb ac b3 bd 9c 45 2b bc 0d 22 50 3d
       -0.08695617 -0.0877318 -0.010453608 0.050813723
0003a0 47 1e ed bd ad 82 8f bd 7f fa 04 be 88 23 88 bc
       -0.115780406 -0.07007346 -0.12986182 -0.016618505
0003b0 b3 c7 15 3e 47 32 ad 3d 3d 7f 8d bd bb c9 43 bc
       0.1462696 0.08456855 -0.069090344 -0.011949952
0003c0 23 e6 fb 3b d8 e3 82 bd c4 ac d4 3d 66 54 d5 3d
       0.0076873465 -0.06391114 0.10384515 0.10416488
0003d0 0d 25 ea 3a ca e0 41 bd f1 5a 95 3c f7 66 35 3d
       0.0017863825 -0.047333516 0.01823184 0.044287648
0003e0 2d e7 3b 3d 42 50 5e bd a2 ca 17 3c 7a df e3 3c
       0.045874763 -0.05427576 0.00926462 0.027816523
0003f0 71 ce de 3c 5a 6a 81 3d f8 16 62 3d 22 c9 53 3d
       0.027198048 0.06319113 0.055197686 0.051705487

bias f4 [128]
000000 5d 85 07 bd 59 08 90 bd c5 1c 11 3d ed fc ed bd
       -0.03308617 -0.07032842 0.035427827 -0.116205074
000010 07 2b 3a 3d f2 7e a0 3d da 48 ab bc b6 b3 f0 3c
       0.04545119 0.07836713 -0.020908762 0.029382568
000020 50 ab 97 bc 15 a7 3a 3d 9c 49 3a bc 0f db 6c 3d
       -0.018514305 0.045569498 -0.011370089 0.057826098
000030 e9 b2 8d 3d 10 76 34 3c db ce 18 3d 97 75 92 3b
       0.0691889 0.011014476 0.037306648 0.004469584
000040 f0 c9 1a 3d 19 34 ba bd de f9 9b 3c da 03 8d 3d
       0.03779024 -0.09091968 0.019040044 0.068855
000050 93 bc 70 3d b9 c7 50 bd 15 5d 44 3c 23 47 0d bd
       0.05877359 -0.05097172 0.011985083 -0.03449167
000060 47 ad b2 3d 8d b1 57 bd 6f 67 ee 3c f2 60 56 bd
       0.08724456 -0.05265956 0.029102055 -0.052338548
000070 23 25 7d bd fc c0 50 3d 4a 7e 48 ba 4a 8b f2 bc
       -0.061802994 0.050965294 -0.0007648213 -0.029607434
000080 ee b5 85 bc 1c d3 9d bd d8 1c b9 3c 49 a7 1a 3b
       -0.016322102 -0.077062815 0.022596762 0.0023598245
000090 9d aa 75 bd 8f ba 64 3d 95 15 e7 bc 03 07 8a 3d
       -0.059977163 0.05584198 -0.028208533 0.06739619
0000a0 8a e1 89 bd af 6a aa bc 9c 1a 43 3d 9b 88 dd bd
       -0.06732471 -0.020802824 0.0476328 -0.10817071
0000b0 74 c3 8f bd ea 8a 2f bd 68 a9 1b 3d ad b4 9e 3d
       -0.070197016 -0.04285709 0.038003355 0.07749305
0000c0 c3 30 78 3c 50 19 86 3d f5 de a8 3c 8d d2 f7 3c
       0.015148344 0.06547797 0.020614127 0.030251766
0000d0 03 cf cf 3c 44 92 94 bd f7 8a 32 bd bd f7 77 3d
       0.025367266 -0.072544605 -0.04358956 0.060538996
0000e0 16 47 10 bd 01 21 77 bd df 58 a4 3d 37 4d 69 3d
       -0.035224043 -0.06033421 0.08024763 0.056958403
0000f0 62 5c 08 3b a2 c6 66 3c 83 df bc 3c 87 96 90 bd
       0.0020807018 0.014085444 0.023055797 -0.07059961
000100 7e f2 1d 3d 49 74 56 3c 7e d7 75 3a fd 98 07 bd
       0.038561337 0.013089248 0.0009378119 -0.033104885
000110 84 f1 7c bb 3f ea 95 3c 83 fa 64 bd 7a 07 29 3d
       -0.0038596103 0.018300174 -0.05590297 0.041266896
000120 f9 77 a7 bc e6 76 6a bd 32 00 f3 3d 42 96 88 3d
       -0.02044295 -0.057242297 0.11865272 0.066692844
000130 27 ad 32 3d 42 66 d1 3c 81 10 94 bd 82 da 00 3d
       0.043622162 0.025561456 -0.0722971 0.031458385
000140 1b bc 9c 3d d6 1e d5 3c ef bb 7a bc 4f 7c 30 bc
       0.07653066 0.02601568 -0.015303596 -0.010771825
000150 ac 67 b7 bd d3 30 b1 bd 63 c1 3e 3d cc 23 85 bc
       -0.08955321 -0.086518906 0.046571147 -0.01625242
000160 12 06 ba 3d f7 68 67 bc 15 e9 90 3d 69 da 6a 3d
       0.09083189 -0.014124147 0.07075707 0.0573372
000170 29 49 4a bd 79 ae 19 bc 03 3f 07 3a a3 03 bf bd
       -0.049386177 -0.009379976 0.0005159231 -0.093268655
000180 24 60 b8 bc 4b fd a1 bd e8 a7 4c 3d 22 a7 08 3d
       -0.02250678 -0.0790964 0.049964815 0.033362515
000190 3a 05 5f bb a9 99 a0 3d 2b d4 53 bd 25 de 3c 3c
       -0.0034030215 0.07841808 -0.05171601 0.011527573
0001a0 9a 2f 2e 3d b2 67 0c 3d 82 26 bc 3d 87 84 ea bd
       0.042525865 0.03427858 0.09187032 -0.11451059
0001b0 3d 87 85 3d fc 5c 88 3c 04 be 5a bd 23 4b 83 3d
       0.06519935 0.0166459 -0.05340387 0.064108156
0001c0 d2 74 7f 3d f3 65 1e 3c 2f 24 61 bb 15 7e 2b bd
       0.062367268 0.009667861 -0.0034353842 -0.041868288
0001d0 4b ac a6 bd e4 2c 79 bd 34 93 5b 3d a0 a7 56 3d
       -0.08138331 -0.060833827 0.05360718 0.052405953
0001e0 68 2d 2c bd a1 68 4d 3d 18 22 e6 3d 61 6d 57 3c
       -0.04203549 0.05014861 0.112369716 0.013148637
0001f0 35 d4 ad bc 3e e9 48 bc c6 14 5d bc ef 6e c6 3c
       -0.021219352 -0.0122626405 -0.013493722 0.02422282

weight f4 [128, 128]
000000 f4 1b 2f be 60 ba 22 3b 1b d6 56 3e 7e e8 44 3c
       -0.17100507 0.0024830326 0.20980112 0.012018321
000010 36 82 bd bd 45 a1 cd 3d b7 2a a4 bd 82 67 30 be
       -0.092533514 0.10040525 -0.0801596 -0.17226985
000020 57 92 93 be 6b 94 0e 3e 43 fa 07 3c a5 02 32 3e
       -0.28822586 0.13923804 0.008299413 0.17383821
000030 c5 ec 89 bc f4 31 8f 3b 3a a7 0d 3e c5 7b 85 bd
       -0.016836533 0.0043699685 0.13833323 -0.06517748
000040 44 f0 a8 bc ec 3c 8f 3e 0c f8 e4 3d 06 66 31 3e
       -0.02062238 0.27976167 0.11180124 0.17324075
000050 ae aa db bd 01 4d 31 3e 9f 2d 77 be c5 38 eb 3b
       -0.10725914 0.17314531 -0.24138497 0.0071783983
000060 70 b2 ed 3c 48 fa 90 be 86 80 a7 3d 84 33 a6 3c
       0.02901575 -0.2831595 0.08178811 0.020288236
000070 c8 d5 84 3e 49 03 af 3e 75 e2 1e bd f4 38 92 bd
       0.25944352 0.34182194 -0.038790185 -0.07139769
000080 07 49 cb 3d c8 b2 85 be 67 6b 5a bd 7c ad 0a 3e
       0.09926038 -0.26112962 -0.053325083 0.13542742
000090 7a 84 05 bd 55 91 08 3e 10 ff 83 3e 94 e3 48 3e
       -0.032597043 0.1333669 0.25780535 0.19618064
0000a0 65 a3 8c bd ec f5 11 be e5 59 c9 3d e7 a7 19 bc
       -0.068671025 -0.14253968 0.09831599 -0.00937841
0000b0 de 5f 9d bd f7 10 e9 bd f3 ac 80 3e 1f dd 80 be
       -0.07684301 -0.11380189 0.2513195 -0.25168702
0000c0 af 5d 64 3c 28 0e b7 bc 72 02 90 bd 1a fa 68 3b
       0.0139383515 -0.022345617 -0.070317164 0.0035549463
0000d0 50 42 c0 bd 8e 6b f4 3d 2b 22 e7 3d f9 f8 23 be
       -0.09387648 0.11934577 0.11285814 -0.16012944
0000e0 fd 22 f6 3c 77 96 10 be 62 93 f2 bd 17 2c 6c 3d
       0.03004598 -0.14119898 -0.11844517 0.057659235
0000f0 7b f6 c5 bd 96 cf d2 3d 0e 32 a1 3c 0c d7 c3 3d
       -0.09666153 0.102935 0.019677188 0.09562501
000100 76 81 ff bc cd 01 43 bc 77 b5 e2 bd 5c 5b 18 3e
       -0.031189661 -0.011902285 -0.11069768 0.14878601
000110 d6 1e b7 bb 20 cd 98 be c9 3d a0 3d a5 ce 3c 3e
       -0.0055883927 -0.29843998 0.078242846 0.18438204
000120 2c 68 69 bc 59 f4 6f bd 08 ef e6 bd 54 a0 47 b9
       -0.014246028 -0.058582637 -0.1127606 -0.00019037846
000130 c6 ac f4 bd e2 55 02 be 71 9b 49 3e 3f b8 bf 3d
       -0.119470164 -0.12728074 0.19688202 0.09361314
000140 20 0e 01 be b4 70 ad 3d ca ca ec bb b5 da fd 3d
       -0.12603045 0.08468762 -0.007226323 0.12395231
000150 21 c3 25 3e 47 b2 98 3d 10 4f 31 be ed 20 c4 3d
       0.16187717 0.07455879 -0.17315316 0.095765926
000160 d6 cd 1a 3d 79 ad 9b 3d 78 3d 51 3d fe 6e 0b 3e
       0.037793957 0.07601447 0.05108401 0.13616559
000170 d2 30 b8 3d 89 4f ca 3d df a6 c8 bd cf 22 84 bd
       0.08993687 0.098784514 -0.09797453 -0.06451952
000180 44 d1 78 3e b5 df 97 bd 58 92 28 be d6 e3 35 3e
       0.24298579 -0.074157156 -0.16462076 0.17762694
000190 92 5c 58 bd 91 e7 5f 3e 71 b1 15 bc 93 bb fc 3d
       -0.052822657 0.2186568 -0.009136544 0.123404644
0001a0 7e 66 0e 3e c7 3c ec 3c 28 0f 48 be b0 b6 93 3e
       0.13906285 0.028837575 -0.19537032 0.28850317
0001b0 65 18 6a be 3e ee 8c bc 85 f4 4d be f4 4e fe bd
       -0.22860868 -0.017203446 -0.20112808 -0.12417403
0001c0 2b c6 a3 bd 3f a9 fc bd 29 8e 1b 3d 63 fd 56 bd
       -0.07996782 -0.12336969 0.03797737 -0.052487742
0001d0 17 47 b5 3d 15 e2 68 be 42 0b 59 3e 00 7f 5a bc
       0.0885145 -0.22742493 0.21195701 -0.013335943
0001e0 4f c9 19 be aa 5a 8d 3d 71 11 d2 bb e8 00 d4 3c
       -0.150182 0.069020584 -0.0064107706 0.025879338
0001f0 25 9b b3 bd b2 0f 08 bd eb 5f 84 bb 66 6d dc 3d
       -0.08769826 -0.033218093 -0.0040397546 0.107630536
000200 0b 5f 92 bc 73 f2 4e 3d 6a e5 9a bc e2 d6 dc bc
       -0.017867586 0.050524186 -0.018908221 -0.026957933
000210 be ad 00 3e b2 c7 9b 3b 75 8f 06 3b 9e d3 9a 3d
       0.12566277 0.00475403 0.0020532284 0.07559894
000220 a0 63 0f 39 5e 64 5a be 30 86 0a 3e 83 30 89 3d
       0.00013674656 -0.2132735 0.13527751 0.06698706
000230 bb 5f e0 bd 0f d4 22 3d a3 69 90 3d 8b b4 1d 3e
       -0.10955759 0.039753016 0.070513986 0.15400903
000240 9d 5f 56 bd f0 a4 92 bd fb 64 9c 3d 1b 6f c6 3d
       -0.052337278 -0.071603656 0.07636448 0.096891604
000250 c0 8b 8c bd 45 cf d7 3c 34 0c 1c 3e 5a f0 a8 bc
       -0.06862593 0.026343951 0.1523903 -0.020622421
000260 08 17 96 3d ab 05 30 be fb 84 3e be e2 e1 38 3e
       0.073286116 -0.17189662 -0.18605416 0.18054917
000270 e7 2c 07 bd eb a1 88 bd 76 cd d2 bd 1c 0c 1d 3e
       -0.033001807 -0.066715084 -0.10293095 0.1533665
000280 64 62 7f 3d 45 ab 58 3e 8c d1 79 3d 93 58 00 3e
       0.062349692 0.21159084 0.060990855 0.12533788
000290 5b 02 4b be 66 68 42 3e cf 2b 42 3d 78 5b 96 3d
       -0.19825117 0.18985137 0.04740506 0.07341665
0002a0 ee fc 35 3e cc 85 37 3b b9 19 01 3e 0c e5 3e bd
       0.17772266 0.0028003333 0.12607469 -0.046605155
0002b0 88 62 2d 3e 9a 16 20 3d b9 77 79 bc e6 a4 d2 3d
       0.16932118 0.039084055 -0.015226298 0.10285358
0002c0 d6 54 4e be 44 35 0f 3e 90 df 55 be db d9 fa bd
       -0.2014955 0.13985163 -0.20886064 -0.12248584
0002d0 d6 a9 1c 3c 33 6f e4 bd 32 ef 19 3e 62 c1 6d bd
       0.009561976 -0.11154022 0.15032652 -0.058045752
0002e0 b4 ff 38 3d ed b1 be 3c a3 a6 05 3e 22 7c 08 3e
       0.045165733 0.023278201 0.13051848 0.13328603
0002f0 7a 3f 07 be ba 31 43 bd 44 ea ab bd 58 47 08 bc
       -0.13207808 -0.047654845 -0.08394292 -0.008317791
000300 0c 7f b0 bb a0 8a 00 bd 94 e4 8e 3d 70 58 b4 bd
       -0.005386239 -0.031382203 0.069771916 -0.088059306
000310 8d 7b 50 3c 88 8e ce 3d 1c be 12 be 0e 81 fe bd
       0.012724769 0.100857794 -0.14330333 -0.12426959
000320 75 0f e5 3d 1c 50 70 be c2 ea f0 bb ce ff 09 be
       0.11184589 -0.2346806 -0.007352204 -0.13476488
000330 b0 04 cc 3c 8a f0 1a 3e 73 80 de bc bc c9 7f bd
       0.024904579 0.15130821 -0.027160859 -0.06244825
000340 e1 ba 03 3c c7 f6 65 bd e6 52 cd 3d 87 ae ce bd
       0.008040161 -0.05614355 0.10025577 -0.10091882
000350 0d cc eb 3c 36 7d a3 bd b9 0a 98 bd 7c db 92 ba
       0.028783822 -0.079828665 -0.0742392 -0.0011204327
000360 58 09 fb 3c 2d c4 3b be c4 f0 4a 3d 21 0d b9 3d
       0.030644104 -0.18336554 0.04954602 0.09035707
000370 c2 19 44 bd 92 a4 30 3d 71 62 b7 3c 15 2b 88 3d
       -0.047876127 0.043125696 0.022385808 0.06648842
000380 27 d2 d0 bd 29 9e 5e 3d 5f 68 76 3e 57 94 39 be
       -0.101963334 0.054350052 0.24063252 -0.18122993
000390 ff 14 00 3e ae e4 68 bc ba 5b 75 bd 20 4b c6 bc
       0.1250801 -0.014214678 -0.05990193 -0.024205744
0003a0 6d a1 f3 ba fb c4 e4 3c 18 36 25 be 5f 72 18 be
       -0.0018587537 0.027925959 -0.16133916 -0.14887379
0003b0 e4 c3 15 3e 26 83 43 3e b7 4a 5c 3e 5b 76 6e bc
       0.14625508 0.19092998 0.21512876 -0.014554585
0003c0 38 0f db bb 8c dc 04 be 5a dc 36 be 58 39 86 3d
       -0.006685164 -0.12974757 -0.17857495 0.06553906
0003d0 4c 95 f9 3d 5b 44 4b 3c 6e 15 11 bd 4a 59 56 bd
       0.12186679 0.012406434 -0.035420828 -0.052331246
0003e0 df 9e ba 3e da 81 1f 3d dd e5 1f 3e b2 2f 34 be
       0.36449334 0.038942195 0.1561503 -0.1759632
0003f0 6e bf 3b 3e 1f a9 43 3d 0b 0d 3a be 0b 33 43 be
       0.18334743 0.04776871 -0.18169038 -0.1906244

bias f4 [128]
000000 af 9d 79 bd a2 bb 57 3d e9 08 1a 3d b5 1d 8f 3c
       -0.060941394 0.052669175 0.037606154 0.01747022
000010 3e 53 ad bb a4 fa b9 3c e5 76 16 bd 35 81 e5 bd
       -0.0052894643 0.022702523 -0.03673448 -0.11206285
000020 79 72 ba bc 23 1d 26 bd ec 95 f0 bd 6c d4 0f bd
       -0.022759663 -0.04055513 -0.11747345 -0.03511469
000030 72 e8 8c 3c 51 ae af 3d d6 cc 52 3d df 31 ea bd
       0.017200682 0.0857817 0.051464878 -0.114352934
000040 06 2d 05 bc 84 50 32 bd 78 ee c9 3c 4c 25 91 bd
       -0.00812841 -0.043533817 0.024649844 -0.07087192
000050 3d f1 a2 bd 3d 81 77 3b 90 eb 35 bb 06 3d 65 bc
       -0.07956169 0.003776624 -0.0027758814 -0.0139916
000060 2b 72 bd 3c c9 82 43 bd 8c 60 bc bd e9 d1 aa 3b
       0.023125729 -0.04773215 -0.09198102 0.0052130115
000070 87 1c ad 3d 00 89 f4 3b cd a1 0f 3c 34 a5 51 bd
       0.08452707 0.0074626207 0.008766604 -0.05118294
000080 a0 39 86 bd 52 36 1c 3d 11 23 33 bd 5f 94 a1 3d
       -0.0655396 0.03813774 -0.043734614 0.07889628
000090 26 89 9c 3c c6 14 e8 3c b6 08 51 3d df 2b 6b 3c
       0.019108366 0.028330218 0.051033698 0.014353721
0000a0 90 7f e8 3c 1c fb 37 3c 1f cc 23 bd fd 2b bc 3d
       0.028381139 0.011229303 -0.039989587 0.091880776
0000b0 be 4c 5b bd 96 71 f8 bd ca b3 2a 3d 9e 70 b5 bd
       -0.053539984 -0.1213104 0.041675366 -0.08859371
0000c0 e4 67 bd 3d 9f 6e d1 3a 0d ae 0f bd 40 bd 46 3d
       0.09248331 0.0015978402 -0.035078097 0.048520327
0000d0 7a f3 22 bc 1b a0 af bb b9 c8 1c bd 4f 35 60 bd
       -0.009945745 -0.005359662 -0.03827736 -0.05473834
0000e0 13 f6 ae bd 93 bc ec 3c bb b2 54 bd 59 d1 a7 3d
       -0.08543029 0.028898513 -0.051928263 0.08194227
0000f0 1f 27 9b 3d 25 0d 49 bd 7a 98 68 3c b6 04 58 3d
       0.07575821 -0.0490848 0.0141965095 0.052738868
000100 11 3b 28 ba 68 db 6f bd 49 c6 b7 bd 18 fb ab bd
       -0.0006417493 -0.05855885 -0.08973367 -0.08397502
000110 9a 20 f4 3d 2b 6b e4 bd ce a2 6a 3d ea ea 80 3d
       0.11920281 -0.11153253 0.05728417 0.06294806
000120 ac 18 70 3d 10 9f 7e 3d 6e 36 0b 3d 27 ed 49 3d
       0.05861728 0.062163413 0.033987455 0.04929843
000130 90 f9 b2 3d d1 b9 93 3c 38 5f 00 bd e7 6d dc bb
       0.087390065 0.01803294 -0.031340808 -0.0067269686
000140 63 d5 69 3d c6 bc 76 bd 95 e8 62 3d a9 32 e9 b9
       0.057088267 -0.060238622 0.05539759 -0.00044478968
000150 d6 3e 41 bd 05 95 52 3c a5 3b c4 bd f4 c1 00 3d
       -0.047179066 0.012852912 -0.09581689 0.031434968
000160 aa 7d b9 bc 7b 3c cf bd 06 07 66 bd 83 0c 5c bd
       -0.02264293 -0.101189576 -0.05615904 -0.05372287
000170 f3 f4 8f 3c 88 3e 8a bc 14 43 af bd 8e 8f 81 3d
       0.017572856 -0.01687552 -0.08557716 0.06326209
000180 a4 60 c1 bc 4e 22 b9 bc 05 22 83 bc 36 66 d3 3d
       -0.023605652 -0.022599366 -0.016007433 0.103222296
000190 b7 b8 36 3d 94 b3 96 bd 70 c2 b6 bd ed 13 a8 3d
       0.04460975 -0.073584706 -0.08923805 0.082069255
0001a0 ac 29 90 bd 7d 7c 28 bd b6 cd d1 3b b1 60 8a bd
       -0.07039198 -0.041134346 0.0064026965 -0.06756724
0001b0 67 65 a2 3d 9a 3c 39 bd f3 e4 48 3b 7a bb 23 3d
       0.07929497 -0.04522381 0.0030654042 0.039973713
0001c0 3d 93 d9 bb bd 70 82 bc 39 7a 96 bd 2b f7 62 3d
       -0.0066398666 -0.015922898 -0.07347531 0.0554115
0001d0 78 42 6b bd 20 ae 57 bb cb 48 9a bd 0b e3 5f bc
       -0.057436436 -0.0032910183 -0.075334154 -0.013664971
0001e0 bc 91 d3 3d 88 fb e5 bc d4 64 e5 3d 3b 4b 7a bd
       0.10330531 -0.028074041 0.11200872 -0.0611069
0001f0 5e 07 ac bc dc 67 3e 3c 23 06 86 3d 40 38 67 bd
       -0.020999607 0.011621442 0.06544139 -0.05645013

weight f4 [128, 128]
000000 25 4f 70 be 6c 2f fd bc e1 03 b2 be f1 b7 37 be
       -0.23467691 -0.030906402 -0.34768584 -0.17941262
000010 91 95 26 3d e7 fe 14 3e dd 07 ce 3c f3 8d 79 3e
       0.04066998 0.14550363 0.025150234 0.24370556
000020 73 e4 92 bc 7d c3 42 3c 75 70 0b be 42 37 f6 3d
       -0.017931199 0.011887428 -0.13617118 0.12022258
000030 4d d4 d2 bd d6 1a 09 be 50 08 db bc 3d 36 97 bd
       -0.102943994 -0.13389143 -0.026737362 -0.07383392
000040 2b cf 2d be 5b 74 f4 bd 9a a4 40 3e 35 79 7f bd
       -0.1697356 -0.119362555 0.1881279 -0.06237145
000050 b0 6b 10 3e 39 8b 7b 3d d6 98 0e bd 57 2a 47 be
       0.1410358 0.06141207 -0.034813724 -0.19449745
000060 8b d3 bb 3d e2 f0 1d 3b 1a 58 c7 bd e9 61 7b bd
       0.09171208 0.0024099876 -0.09733601 -0.06137267
000070 aa c3 30 be 67 9e a1 3d 5e 64 97 3c 9b ab 2f 3e
       -0.1726214 0.07891541 0.018480476 0.17155306
000080 79 02 1e bc 9f 48 10 bd c2 6c 65 be 33 43 76 be
       -0.009644144 -0.035225507 -0.22404769 -0.24049072
000090 e4 b6 0d be 1d b0 13 3e e8 2f cd 3c 87 25 79 be
       -0.13839298 0.1442265 0.025047258 -0.24330722
0000a0 72 4c ae bd a1 21 47 be 82 af 30 3e ef d7 fd 3d
       -0.085106745 -0.19446422 0.17254451 0.12394702
0000b0 99 ae 3a bd 10 fa 5d 3e a0 af 6a be b1 ed 41 be
       -0.045576666 0.21677423 -0.22918558 -0.18938328
0000c0 27 6d 35 bd ca cb f2 3e 26 9a bb 3c db 9c 7b bd
       -0.04429355 0.47421104 0.022900652 -0.061428886
0000d0 c6 a4 bf 3e 27 73 86 bd 2c 60 5c bc 55 80 65 bd
       0.374304 -0.06564932 -0.013450664 -0.05603059
0000e0 80 e9 4f 3c 92 06 3f 3d cc 48 32 bd ce 7c e5 bd
       0.012689948 0.046637125 -0.043526456 -0.11205445
0000f0 a0 7b 2c be 56 eb 6f bd a3 32 7e 3e 8d 93 b4 be
       -0.16844034 -0.058574043 0.24824004 -0.35268822
000100 6e ad 50 bd 5c 92 bc bd d7 d2 32 3e 26 48 a0 be
       -0.050946645 -0.09207603 0.17463242 -0.31305045
000110 8e d3 ad 3d cf a3 9b bc 9f 47 e1 3e e0 86 86 3e
       0.084876165 -0.018999008 0.43999955 0.26274776
000120 a1 46 67 3e 68 e1 c4 3d 00 fb 63 bd 61 76 80 3d
       0.22585537 0.09613305 -0.055659294 0.06272579
000130 3b f4 98 3d bc ec 3a 3e 36 b5 3e 3d 4d 8d 49 3e
       0.07468458 0.1825437 0.046559535 0.19682808
000140 7f 23 00 be dc 82 cd ba e8 86 0d be cc 6e be 3c
       -0.1251354 -0.0015679258 -0.13820994 0.023246191
000150 52 10 9c bd 03 e8 54 be 4d 2c 8b 3c 79 bf 1d be
       -0.076203 -0.2079163 0.016988898 -0.15405072
000160 51 15 06 be d3 0d 3b 3d 48 64 4c bd 40 66 13 be
       -0.13094069 0.04566748 -0.049900323 -0.14394474
000170 e8 51 7a be fd 1e 85 be 66 4b 87 bd ac 1f 25 bd
       -0.24445307 -0.26000205 -0.06606178 -0.040313408
000180 cf d4 ac 3c 79 3a 91 3d 70 e7 41 3a 2e 1c 3f bd
       0.021097569 0.07091231 0.00073968526 -0.046657734
000190 c1 34 75 3d 9f 6b e0 3d 26 97 92 3e 68 0d 42 3d
       0.059864763 0.10958027 0.28630942 0.047376066
0001a0 5a 5d 86 be e3 aa 09 be d6 db 05 bd 31 10 99 3d
       -0.26243097 -0.13444094 -0.032680355 0.074737914
0001b0 4a f0 e5 bd c2 55 09 3c ef 5f fb bd 23 53 e9 bc
       -0.11227472 0.008382263 -0.12274157 -0.028482025
0001c0 2b e8 0e bd 76 ab 75 3c f9 98 6a 3e 9e ee 8a 3c
       -0.03488938 0.014994493 0.22909917 0.016959485
0001d0 76 78 a1 bd 8c e6 82 bd ef b5 92 be d6 50 9d 3d
       -0.07884304 -0.063916296 -0.2865443 0.07681434
0001e0 9c 9f ce 3d 9c ea 30 3e de 12 6a bd 2d f7 36 3e
       0.10089037 0.17276996 -0.0571469 0.17867728
0001f0 ad ac 8b 3d 4d 62 e0 3d 2b 3f 54 3e a9 dd 08 bd
       0.06820045 0.109562494 0.20727222 -0.033414517
000200 81 b9 ef bc 5f ed 33 3e a4 18 7e be 05 8f 1d be
       -0.02926326 0.17571019 -0.24814087 -0.15386589
000210 b3 26 06 be 9d 85 a6 bd 47 dd e6 be a5 46 22 3c
       -0.131007 -0.081309535 -0.45090696 0.009904538
000220 1a 39 85 3c 11 da 29 3e 1b 57 65 be e0 26 90 3d
       0.01626258 0.16587092 -0.2239651 0.07038665
000230 27 f7 1c 3e d3 1f 29 be a1 05 db 3b a2 56 94 bd
       0.15328656 -0.16516046 0.0066840206 -0.072430864
000240 e9 4e d2 3d e6 a7 e8 bd 81 fe eb 3d 12 b8 a5 3d
       0.10268957 -0.11360149 0.11523152 0.08091749
000250 0d a2 38 be 99 ae 57 be 73 af e3 3d 32 fc 45 be
       -0.18030567 -0.21062697 0.11117449 -0.19334486
000260 07 35 80 3e 4b ef 85 be 3e 6c 10 be e6 cd 6b 3e
       0.25040457 -0.2615913 -0.14103791 0.23027763
000270 8a 5b 21 3e 90 e6 90 bd b4 af 10 3d 0e d6 b6 bd
       0.15757576 -0.07075226 0.035323814 -0.089275464
000280 90 b4 02 3d 31 1f f3 bc 60 07 c0 bd b3 e0 1c be
       0.03191048 -0.02967796 -0.09376407 -0.15320091
000290 d6 29 d4 be 24 29 1b be f8 25 ae 3d c8 c1 93 3c
       -0.41438168 -0.15152413 0.08503336 0.018036738
0002a0 66 90 47 be b2 42 9c bd 17 62 bf 3d 92 72 b0 3e
       -0.19488677 -0.076299086 0.09344881 0.3446241
0002b0 18 7d 61 3d ef b2 94 bc 64 2d cf 3d 57 ec 3f bd
       0.05505094 -0.018151728 0.101160794 -0.04685625
0002c0 5c ee ab 3d 4d a4 11 3e 1b 66 b7 3c 96 9d 35 bd
       0.08395073 0.14222832 0.022387555 -0.04433974
0002d0 64 ec 7a 3c 8b a9 b1 be ac 65 29 3e 72 46 4a be
       0.015315149 -0.34699664 0.16542691 -0.19753435
0002e0 9c e0 21 be 7a 54 ba 3e a4 7b 50 be 06 29 22 3e
       -0.15808338 0.36392576 -0.20359665 0.15835962
0002f0 61 41 1d 3d 40 0f 9a bd 61 ba 84 3d 52 94 40 3c
       0.03839243 -0.0752244 0.064808615 0.011754112
000300 90 84 16 be d3 40 bf bc 15 77 22 bd fe 32 0c be
       -0.14699006 -0.02334634 -0.039664347 -0.13691327
000310 ec 6a 75 3e 73 75 91 be 56 63 fe 3d d5 b6 44 3d
       0.23966569 -0.2840992 0.124212906 0.048025925
000320 01 17 26 bc 5d 1c 96 bd ff 67 33 3e 62 47 01 bd
       -0.0101373205 -0.073296286 0.1752014 -0.031562217
000330 5d 32 83 3e a7 de a0 3a 26 3a f1 bd e1 5e 7c bd
       0.25624362 0.0012273387 -0.11778669 -0.06161392
000340 bc 29 f5 be 9d fc f4 3d 44 8c 8c 3e 07 16 7d bd
       -0.47883403 0.11962245 0.27450764 -0.061788585
000350 5d 15 4b 3d cb ca 7c 3e 7f 15 c3 bd 8b 24 75 3d
       0.04958092 0.24686734 -0.095255844 0.059849303
000360 1e 41 12 be b9 50 bd be 90 b8 b3 3c 9b dd d3 bd
       -0.14282653 -0.3697565 0.021938592 -0.10345002
000370 bc 97 35 be d1 c3 0d be 1b 3a a7 bd 98 98 0e 3e
       -0.17733663 -0.1384423 -0.081653796 0.13925397
000380 c7 40 5e be 19 16 6e 3e 9b 4c 01 3e f1 d8 8a 3c
       -0.21704398 0.23250617 0.12626879 0.016949149
000390 59 ec 0b bd 9b ad 21 be 02 19 4c bd 42 20 40 3d
       -0.034160946 -0.15788881 -0.049828537 0.046905763
0003a0 88 61 a5 3b 8b 10 e3 be 8d 19 8a bd 76 7d 4d 3e
       0.005047027 -0.4434856 -0.06743155 0.20067391
0003b0 b7 8e c7 3d 90 f4 95 bd c2 5c cc 3c 99 98 3b 3e
       0.097440176 -0.07322037 0.024946574 0.1831993
0003c0 67 2b 75 3d 26 aa bb be 94 aa db bd 17 5e 59 3e
       0.059855845 -0.3665325 -0.107258946 0.21227299
0003d0 b1 47 2c 3e 88 8e c8 bd b4 1d 04 bd 31 49 a2 be
       0.16824223 -0.09792811 -0.03225489 -0.31696466
0003e0 50 26 a6 3d 28 d1 21 3c 3f 2d f3 3d b6 5b 5c 3b
       0.08112776 0.009876527 0.118738644 0.0033624
0003f0 0a 2d ec bd d6 93 75 bc 45 6c 41 3e f6 34 37 3d
       -0.11532028 -0.01498886 0.18888958 0.04472824

bias f4 [128]
000000 13 dd 29 bd 91 93 1b 3e 09 f6 7f 3d d6 69 ac 3d
       -0.0414706 0.15193011 0.062490497 0.08418624
000010 b1 8d 10 3d a2 72 b1 bd e9 d1 c6 3d d4 ea 13 be
       0.035291377 -0.086644426 0.09708006 -0.14445049
000020 6e 04 48 be c4 dc dd 3c ce 16 74 3d d2 59 98 bd
       -0.1953294 0.027082808 0.05959206 -0.07439007
000030 d9 be e6 bd 32 1d ab bc 1a 41 53 3c 56 8f 33 3c
       -0.1126687 -0.020887945 0.012893939 0.010959467
000040 24 f7 e7 3d 5c 07 3e bc a0 69 1a be 68 2a 97 bc
       0.11326435 -0.011598434 -0.15079355 -0.018452838
000050 47 d9 ae 3d 78 df a8 3d c5 72 c8 3d 24 82 bc 3c
       0.08537536 0.08245748 0.097875156 0.023011275
000060 ae 44 d1 bd d1 4f 40 3d 2b a9 63 3d c7 4c 95 bd
       -0.10218178 0.04695112 0.055581253 -0.07290035
000070 82 f5 9e 3d 4a 05 0b bd 5c 5b 2e 3c e8 1a 63 3d
       0.07761671 -0.03394059 0.010641899 0.05544558
000080 5e 3f 0c 3e 1d 06 d5 3c 0d 6c ef 3d 7a 95 6d 3d
       0.13696048 0.026003892 0.11690531 0.05800388
000090 3c 10 23 be 88 f2 78 be 4b 3f 14 3b a4 fb 12 3d
       -0.15924162 -0.24311268 0.0022620733 0.035884514
0000a0 f9 cb 9c bd de 2a 1e 3e 8d 78 2f bd c5 d2 e0 3d
       -0.07656092 0.1544604 -0.042839576 0.10977701
0000b0 8e 34 68 3d 03 7c 95 bd b4 9f 84 3d d9 e7 5c bd
       0.056690745 -0.07299044 0.064757735 -0.053932045
0000c0 8f 9e 3e 3c 9e aa 87 b9 2e f6 2c 3d ae a0 2c 3d
       0.011634483 -0.00025876326 0.042226963 0.042145424
0000d0 67 3a b9 bd ce 7b 9a 3d c3 2f 87 bd 65 e9 b4 3c
       -0.090443425 0.07543145 -0.06600907 0.022083947
0000e0 3d 23 aa 3c ca 1f fc 3d 38 fa 89 bd 44 a9 c1 3d
       0.020768756 0.12310751 -0.067371786 0.09456113
0000f0 91 a8 15 bd 35 f3 a3 bc d6 f4 15 bd f1 dc 50 bd
       -0.03653771 -0.020013431 -0.036610447 -0.050991956
000100 d1 b0 84 3d 34 75 04 3d 54 af 79 bc db 55 61 3d
       0.064790376 0.032338336 -0.015239555 0.05501352
000110 7e 26 b8 bd cc 6a f2 3c a5 6d a5 3d b3 45 9a 3d
       -0.08991717 0.02959194 0.08077554 0.07532825
000120 4d eb 19 3e 14 7c 97 bd 47 87 39 3e 0e 23 29 be
       0.15031166 -0.07396713 0.1811801 -0.16517279
000130 41 f5 44 3d 6b 26 73 3d ce e7 19 3d c9 ba 4c bd
       0.048085455 0.05936281 0.03757458 -0.04998282
000140 18 a7 33 3a 36 a8 18 3c f2 30 13 bd f7 c8 92 3d
       0.0006853207 0.009317448 -0.03593535 0.07167237
000150 af 3b 2a be 99 6c 3d bc 17 39 cf 3d 7a cc 0b 3d
       -0.1662433 -0.011561536 0.10118311 0.03413055
000160 f1 69 c8 bd 29 3c f9 bd ad d8 8c 3d 8f f3 2c 3d
       -0.09785832 -0.12169678 0.06877265 0.042224463
000170 48 38 e2 bc 9a b7 16 bd ad cb fc 3b db 34 99 bd
       -0.027614728 -0.03679619 0.0077147097 -0.074807845
000180 7f 08 27 3d 0f fd 6d bd 24 46 44 3e 21 83 b4 3c
       0.040779587 -0.058102664 0.19167382 0.022035183
000190 7d 2f 3a 3d 90 3c 37 bc 8d 3b ff 3d 7d b2 8d 3d
       0.045455445 -0.011183873 0.1246253 0.069188096
0001a0 d7 63 1e bd 03 b0 cd 3c 53 8e 83 3c bd 56 da 3c
       -0.038669433 0.025108343 0.016059076 0.026652688
0001b0 5d 89 8d 3d fe 5d 8f bc 84 0d cc bc 77 66 37 bd
       0.069109656 -0.017500874 -0.024908789 -0.044775452
0001c0 fe 3e 93 3d b3 59 8b 3b c3 a9 78 3d 59 97 35 3d
       0.07189749 0.0042526363 0.060708772 0.04433379
0001d0 42 bc 8a 3b 6a d1 94 3d 21 49 97 bd 2c 20 cf bc
       0.004233868 0.07266505 -0.07386995 -0.025283895
0001e0 c0 cc 82 3d 2e fe d5 3d 3d 59 80 bc 97 1a 22 3d
       0.06386709 0.104488716 -0.015667552 0.03957614
0001f0 fa 7d 84 bd bf 8d 3f bd 9e 22 c4 3d 6e 44 4c 3d
       -0.064693406 -0.04676604 0.09576915 0.049869947

weight f4 [2, 128]
000000 b0 86 d2 3e 5e 4f 5d 3e 9a 79 07 3f bd 04 cf be
       0.41118383 0.21612307 0.52919924 -0.40433303
000010 49 95 fe be 58 d5 01 3e 44 58 1b be 29 64 60 3e
       -0.4972327 0.1267904 -0.1517039 0.21913208
000020 7b 40 0d 3f 17 4a 9b be cf 43 e4 3e 5d 2b 98 bd
       0.55176514 -0.30329964 0.44582984 -0.07430146
000030 dd 8c 74 be f9 e3 04 3f 67 07 de bc 15 b5 07 bf
       -0.2388186 0.5191036 -0.02710314 -0.53010684
000040 a2 59 df be 88 bf f4 3e 45 75 0e be 04 b7 b8 be
       -0.43623072 0.47802377 -0.13911922 -0.3607713
000050 44 66 45 3e 8a e3 7e 3e 74 a5 da be 9a 8a 05 bf
       0.19277292 0.24891487 -0.42704356 -0.52164614
000060 ba e1 e5 bd 6c 33 e8 3e e8 3f a8 be 1d 21 37 be
       -0.112246946 0.45351732 -0.32861257 -0.17883725
000070 c8 e5 e4 be 77 3c 0c bf 85 85 d3 bb 27 e8 cd 3e
       -0.4470656 -0.5477976 -0.0064551258 0.4021618
000080 51 0e 1e bf c8 35 fb be 84 97 e2 3e 1a 82 d9 be
       -0.61740595 -0.4906447 0.44256222 -0.42482072
000090 17 b9 fe be b8 89 06 bf a0 39 f0 bd bc f1 b1 be
       -0.49750587 -0.5255389 -0.11729741 -0.3475474
0000a0 20 41 5e be eb 3b 7b 3e 8b 11 30 be 0a f3 ca 3d
       -0.2170453 0.24534576 -0.17194192 0.09909637
0000b0 c2 b6 b4 be e9 7d 33 be 10 b5 2a bf f9 b5 10 3f
       -0.35295683 -0.175285 -0.6668253 0.5652767
0000c0 2b f7 ee 3e b6 75 9c 3d 1a 58 be 3e b3 5d ba be
       0.4667295 0.07639639 0.3717659 -0.36399612
0000d0 30 73 83 be 59 b2 fb 39 7c e3 db 3c 23 f1 98 be
       -0.2567382 0.0004800733 0.026841871 -0.29871473
0000e0 c5 a3 04 3f 89 26 47 3e 16 0f c5 be ec 6e 7c 3e
       0.5181239 0.19448294 -0.38488072 0.24651688
0000f0 14 38 2f 3f e1 60 d0 3e b7 91 b1 be c6 7c f2 3e
       0.68444943 0.40698913 -0.34681484 0.4736082
000100 a4 2d cf 3d 63 88 af 3d 44 1c 36 be 01 e9 ae be
       0.10116127 0.085709356 -0.1778422 -0.34162143
000110 de 06 81 3d 3a 27 d6 be cb 09 ea 3e 3a ee 02 bf
       0.06300138 -0.41826802 0.45710596 -0.51144755
000120 93 a4 f2 3e 18 39 f5 be 18 40 45 be 69 23 ea 3e
       0.47391185 -0.47895122 -0.19262731 0.4573014
000130 32 45 13 3e d6 b2 f6 be 0b ff 86 3e 6f 68 c9 3d
       0.14381865 -0.48183316 0.26366457 0.09834372
000140 b1 93 c0 be ab b3 27 bf 10 87 de be 85 24 62 be
       -0.3761268 -0.65508527 -0.4346242 -0.22084244
000150 3e ce 88 be 94 6c 17 3e ae 12 5b be 95 10 d9 be
       -0.2671985 0.14787513 -0.21393844 -0.42395464
000160 07 20 af bd 6a 63 02 bf d9 e0 ca be 4b ff 0c 3f
       -0.085510306 -0.50932944 -0.3962467 0.55077046
000170 ef 8f 0a 3f bd 76 17 3f 82 08 8c 3e ea b4 1b 3f
       0.54125875 0.59165555 0.2735024 0.6082293
000180 d3 8d 92 be 06 00 0b bf b6 fe a8 be fc 9b e3 be
       -0.28623828 -0.5429691 -0.3300683 -0.44454944
000190 dd ee 75 be ab c5 3d 3e 2b b1 b7 3e 69 ad fb 3e
       -0.240169 0.18532436 0.35877356 0.4915574
0001a0 e6 5b 11 bf 76 67 62 3c cf cb 36 3e 76 e2 c8 be
       -0.5678085 0.013818612 0.17851184 -0.39235276
0001b0 c9 35 92 bd 0c 1d d6 be 37 86 8d 3e 3f f9 32 3e
       -0.07139165 -0.41819036 0.2764146 0.17477892
0001c0 00 91 8a be 72 f0 1a bf c7 6f 30 bf cb 1d 34 3e
       -0.2706375 -0.6052314 -0.6892056 0.1758949
0001d0 31 55 fd be 74 a3 2e bf ea 90 ed 3e f5 5e e8 be
       -0.49479058 -0.6821816 0.46399623 -0.45384946
0001e0 e0 e7 cf be 83 6d b3 be b0 e0 ee 3e 76 3a 9a 3e
       -0.40606594 -0.35044488 0.46655798 0.30122727
0001f0 c5 75 8e 3e 0e 4e dd bd d1 dd 37 bf c7 b7 8a 3e
       0.27824226 -0.108059034 -0.7182284 0.27093336
000200 36 26 2d 3e 4c 1d 95 3e 51 bf c0 bd 4c 7b 3d be
       0.16909108 0.29123914 -0.09411491 -0.18504065
000210 05 da f9 3d 21 3d 86 be cd 2b c8 be 49 c5 4a be
       0.12199787 -0.26218513 -0.39095917 -0.19801821
000220 48 ca af bb b2 04 58 be 6d 80 c1 3e 45 50 9d 3e
       -0.00536469 -0.21095541 0.37793294 0.30725303
000230 b5 ce 31 3e 55 ee 43 3e 36 18 94 be 64 3e 3a bd
       0.17364009 0.19133885 -0.2892472 -0.045469657
000240 8e cd 36 3e 9a 6a 64 be c4 bf 78 3e 11 7e bf 3e
       0.1785185 -0.2230629 0.24291903 0.3740087
000250 a7 7d 89 3e 3a 06 82 3e ed 70 c9 bd d6 cd 8d bd
       0.26853678 0.25395375 -0.09835992 -0.06924026
000260 8f e9 98 3e d6 fc 7a be e7 56 f1 3d 2a 57 ad be
       0.2986569 -0.24510512 0.117841534 -0.33855563
000270 4d 44 0b bd aa 1e 36 3e 8d c8 de be ab 1d 61 3e
       -0.034000684 0.17785135 -0.43512383 0.21983974
000280 9e f6 d5 bd dd 07 1c be 4d 06 91 3e 53 b8 1d be
       -0.10447429 -0.15237375 0.2832512 -0.15402345
000290 45 ca c9 be 29 e3 3d 3e a6 b2 b6 be 34 f9 47 3e
       -0.39412132 0.18543686 -0.35683173 0.19528657
0002a0 03 e8 aa 3e c5 83 d7 be a8 6c b5 be 72 69 a9 be
       0.33380136 -0.4209272 -0.3543446 -0.3308826
0002b0 54 0e 68 3e 6d d1 9a be c6 6e d8 bd 9b 5b 88 3d
       0.22661716 -0.30237904 -0.10568003 0.06658097
0002c0 73 dc ea bd 41 59 92 3e 3e 89 0a 3e 41 f8 b4 3e
       -0.114678286 0.2858372 0.13528916 0.35345653
0002d0 74 7d 8d 3e 75 4c e8 3e 79 30 c5 be 97 13 03 be
       0.27634776 0.45370832 -0.38513544 -0.12800442
0002e0 77 92 27 be dc fc 99 be a5 96 94 be 29 cf 20 3e
       -0.16364466 -0.3007573 -0.29021183 0.15704025
0002f0 e5 d8 22 3d 42 d7 aa 3e 89 4f 68 3e b1 b9 98 3e
       0.039757628 0.33367354 0.2268659 0.2982917
000300 a7 af 8c be 37 ba 8a 3e 61 ae be 3e e9 53 a0 3e
       -0.27477762 0.27095196 0.37242416 0.31314018
000310 92 70 83 be 74 e5 de 3d 8e c9 1b 3e a6 bf 11 be
       -0.25671822 0.108836085 0.15213606 -0.14233264
000320 71 70 46 3e 71 60 dd be 4a c5 6e 3e b7 18 24 be
       0.1937883 -0.4323764 0.23317447 -0.16025053
000330 a4 85 b4 be ed c8 d8 be a2 05 91 3e 70 da a3 3e
       -0.3525821 -0.42340794 0.2832461 0.32002592
000340 62 8f 62 3e b5 03 03 be 6d 25 4d be 57 fa a4 3e
       0.22125009 -0.12794383 -0.20033808 0.32222244
000350 6b 20 c0 3e 47 66 a3 be 05 9a 88 3e 89 35 8e be
       0.37524733 -0.3191397 0.26680008 -0.2777522
000360 7a b1 93 3e 8c 72 38 be 1d 31 58 3e f1 d2 30 3e
       0.2884634 -0.18012446 0.21112485 0.17267968
000370 51 37 3a 3e e4 e7 da 3d e8 b0 03 bf 8b 61 7c 3e
       0.18185164 0.10688761 -0.5144181 0.24646585
000380 40 76 9b 3e 3e 13 8c be 2a be f9 3d 51 06 47 be
       0.30363655 -0.2735843 0.12194474 -0.19436003
000390 df 09 be 3e a8 0b ad 3e 33 30 78 3e ec cc c9 3e
       0.37116906 0.33797956 0.24237137 0.39414155
0003a0 ed 88 b1 bd 9c 4e e3 be 69 0a 82 be 5f ef 1f be
       -0.08668695 -0.44395912 -0.25398567 -0.15618657
0003b0 21 44 bc 3e e0 72 a8 be e2 23 48 be c4 ff 7d be
       0.36770728 -0.32900143 -0.19544938 -0.24804598
0003c0 3e 12 30 be e6 64 00 be 2c fe e8 bd cf 34 80 3e
       -0.17194459 -0.1253849 -0.113766044 0.2504029
0003d0 84 9b 83 3e 01 91 5d be 3d 12 d1 3d 44 e5 85 be
       0.25704587 -0.21637346 0.10208557 -0.26151478
0003e0 f3 c5 a3 3e 63 48 43 be 29 2b d3 3e 94 7b 8f be
       0.3198696 -0.19070582 0.41243866 -0.2802397
0003f0 1d 2b 63 be 7b 02 a3 be 2b 9d 9f bd a6 d5 8d 3e
       -0.22184415 -0.3183783 -0.07793649 0.27702063

bias f4 [2]
000000 68 ea ce bc 67 6f 6b 3d
       -0.025258258 0.05747929
