memo/data/ppo_penalized_marigold_128x4/ppo_penalized_marigold_128x4_s0/pyt_save/model.pt (torch, 705862 bytes, 29 tensors)

log_std f4 [2]
0	0xc075f3b2	-3.842999
1	0xc06b2e43	-3.6746986

weight f4 [128, 60]
0	0xbe024db7	-0.12724958
1	0x3d9f9dd5	0.07793776
2	0xbdd6cfb0	-0.10488832
3	0xbd76e0e5	-0.06027307
4	0xbcfa64c3	-0.030565625
5	0x3c12d4f9	0.008961909
6	0xbbec7cbe	-0.007217019
7	0x3da613b5	0.081092276
8	0x3dd7115d	0.10501359
9	0x3da929f4	0.08259955
10	0x3d534f0e	0.051589064
11	0x3dd51b49	0.10405595
12	0xbe874d29	-0.26426056
13	0xbeca7e94	-0.39549696
14	0xbf370b7d	-0.71501905
15	0xbe9c4c1b	-0.30526814
16	0x3e84a034	0.25903475
17	0x3e8c7688	0.27434182
18	0xbb8d7532	-0.0043169493
19	0xbd6644db	-0.05621801
20	0x3d4010e9	0.046891127
21	0x3c1e7cf2	0.009673344
22	0x3dd9d445	0.1063619
23	0x3e6dd1c2	0.23224548
24	0xbc63a595	-0.013894458
25	0xbd8c5db4	-0.0685381
26	0x3da79d19	0.08184261
27	0xbdfa41d9	-0.12219591
28	0xbe0ec30d	-0.13941593
29	0x3c917c7d	0.017759556
30	0xbd67b749	-0.05657128
31	0x3dcc966b	0.099896275
32	0xbe14019d	-0.1445374
33	0xbd50bfc9	-0.05096415
34	0xbdb1bc16	-0.08678453
35	0xbe1a8f6a	-0.1509377
36	0xbdbe279f	-0.09284901
37	0x3e24db90	0.16099381
38	0x3e77ebca	0.2421104
39	0x3e4413b6	0.19148144
40	0x3bde7acd	0.0067895413
41	0xbdbbbf38	-0.091673315
42	0xbe23b217	-0.15985905
43	0xbd24c8e6	-0.040230654
44	0x3e162c5e	0.14665362
45	0x3d9c81f1	0.07641972
46	0x3d250f19	0.0402976
47	0xbe45ca14	-0.19315368
48	0xbf0cf509	-0.55061394
49	0xbe82ef8e	-0.2557339
50	0x3b9d2815	0.004796038
51	0x3e2e3a50	0.17014432
52	0x3ea5545b	0.3229092
53	0x3e714d22	0.2356458
54	0x3e954f92	0.2916227
55	0x3afa05b1	0.0019075182
56	0x3db5b31b	0.08872052
57	0x3e947c02	0.2900086
58	0x3e23222e	0.15931007
59	0xbd88951c	-0.06669065
60	0x3e85340c	0.2601627
61	0x3d2a5130	0.041581333
62	0xbd999054	-0.074982315
63	0x3d96c6ef	0.07362162
64	0xbd85f07e	-0.06540011
65	0xbe8c5b58	-0.2741344
66	0x3d6dc647	0.05805042
67	0x3dd7abd9	0.10530824
68	0x3d99232a	0.0747741
69	0x3e1e295f	0.1544547
70	0x3db4bd81	0.088252075
71	0x3deb307e	0.114838585
72	0xbc66d022	-0.014087709
73	0xbd361594	-0.044454172
74	0xbe733a2b	-0.23752658
75	0x3eaba53d	0.33524504
76	0x3e82a49c	0.25516212
77	0xbdfee1ff	-0.12445449
78	0xbc8c4ef9	-0.0171275
79	0xbda56847	-0.0807653
80	0xbdf66796	-0.12031476
81	0x3da4081d	0.0800936
82	0x3e47313d	0.19452377
83	0xbdc85f7e	-0.09783839
84	0x3c661ed8	0.01404544
85	0xbdcad515	-0.099039234
86	0xbdfeb4f5	-0.124368586
87	0xbd99d4b0	-0.0751127
88	0x3d942f86	0.07235627
89	0xbd2e7702	-0.042593963
90	0x3d653efc	0.05596827
91	0x3e15b514	0.14619857
92	0x3df764ea	0.12079795
93	0x3dcc22de	0.09967588
94	0xbe169b4a	-0.14707676
95	0xbd8b1ec0	-0.067929745
96	0x3e06cd05	0.13164146
97	0x3d7bac2b	0.06144349
98	0xbeb05c4a	-0.3444541
99	0x3d3507b4	0.0441968
100	0x3df8bae3	0.12145021
101	0x3d80ee84	0.06295493
102	0xbe0cd1de	-0.13751933
103	0x3b56a01d	0.0032749244
104	0xbd3deb8b	-0.04636721
105	0xbc532dca	-0.012889335
106	0xbe6f72eb	-0.23383681
107	0xbe5814a1	-0.2110162
108	0xbea02397	-0.31277153
109	0xbe2ae75c	-0.16689819
110	0xbde5ff54	-0.112303406
111	0x3d134df7	0.035963025
112	0xbce1d8b5	-0.027569154
113	0x3e368b34	0.1782654
114	0x3e0776df	0.1322894
115	0xbc8d7c11	-0.017271074
116	0x3d8ada00	0.067798615
117	0xbd8b933f	-0.06815194
118	0x3dd45f4c	0.10369739
119	0x3cfad4d6	0.030619066
120	0x3da69398	0.0813362
121	0x38c7b8a3	9.523451e-05
122	0xbcb14eb0	-0.021643966
123	0x3d650254	0.055910423
124	0xbd59161e	-0.05299961
125	0xbde04c40	-0.109520435
126	0xbd656718	-0.05600652
127	0xbeb58745	-0.35454765
128	0xbd32b550	-0.043629944
129	0xbe080176	-0.13281807
130	0x3cc89993	0.024487292
131	0x3db7b653	0.089703225
132	0x3cb16455	0.021654287
133	0x3e5c25b8	0.21498764
134	0x3e8df76d	0.27727833
135	0xbe44d4d6	-0.19221815
136	0xbea7ba4e	-0.32759327
137	0xbde32afd	-0.11092184
138	0xbd27007e	-0.040771954
139	0x3da81cfa	0.08208652
140	0x3dfa72a2	0.12228896
141	0xbcdc7185	-0.0269096
142	0x3e12f32a	0.14350572
143	0x3d193777	0.03740641
144	0xbdb87a13	-0.09007659
145	0x3d551e8f	0.052031096
146	0x3e250f65	0.16119154
147	0x3a96d3e7	0.0011507244
148	0xbd2ff463	-0.042957675
149	0xbd1ed467	-0.03877678
150	0xbdbe0f10	-0.09280217
151	0xbe09b42a	-0.13447633
152	0xbd1afe64	-0.037840262
153	0x3e1e2aca	0.1544601
154	0x3df78011	0.120849736
155	0xbe3a7a52	-0.18210724
156	0x3dbb024e	0.09131299
157	0xbdd14add	-0.10219357
158	0xbe87be4a	-0.26512367
159	0x3bf30d37	0.007417347
160	0xbccbb4e2	-0.024866525
161	0x3d326ec1	0.043562654
162	0xbdd12176	-0.1021146
163	0xbe126f57	-0.14300285
164	0xbdee591f	-0.11638092
165	0x3d78934e	0.060687356
166	0x3cdb21cf	0.02674952
167	0x3d93658a	0.071971014
168	0xbdd17c3a	-0.102287725
169	0x3c9d8cec	0.019232236
170	0x3e86353d	0.26212493
171	0xbd267077	-0.0406346
172	0x3dd29f39	0.102842756
173	0xbce2420e	-0.027619388
174	0xbe250267	-0.16114198
175	0x3de6cb7b	0.112692796
176	0xbbe2360e	-0.0069034165
177	0xbc13b056	-0.00901421
178	0x3d8bcf51	0.06826652
179	0xbdd5a829	-0.10432465
180	0x3d561365	0.05226459
181	0xbbc04abf	-0.0058682854
182	0x3d5face6	0.05460825
183	0xbddff0bb	-0.109345876
184	0xbe010349	-0.1259891
185	0xbde6d611	-0.11271299
186	0xbe25627f	-0.16150855
187	0xbd85fa8f	-0.06541931
188	0x3cabe495	0.02098302
189	0x3d686d6d	0.05674498
190	0x3d74636d	0.059665132
191	0x3c2a82b2	0.010407137
192	0xbe458158	-0.19287622
193	0x3d229dfa	0.03970144
194	0xbe332401	-0.17494203
195	0xbc5f54d8	-0.013631068
196	0x3da42d59	0.08016462
197	0x3d4261cf	0.04745656
198	0xbe36ca2e	-0.17850563
199	0xbb389687	-0.0028165893
200	0x3bb1f64a	0.0054309713
201	0x3df07817	0.11741655
202	0xbe074170	-0.13208556
203	0xbe06492e	-0.13113853
204	0xbe14e36c	-0.1453988
205	0x3d707061	0.058700923
206	0xbd819631	-0.06327475
207	0x3d8a434e	0.067511186
208	0x3cfaa012	0.030593906
209	0xbcfbab27	-0.03072126
210	0xbd7a6de8	-0.06113997
211	0xbd8b6bf3	-0.06807699
212	0xbdb9ad7d	-0.090662934
213	0xbd0643e4	-0.03277959
214	0xbd5f15d1	-0.054464165
215	0xbd69e35c	-0.057101592
216	0xbe50f8ce	-0.20407411
217	0xbdb45e8a	-0.088070944
218	0x3d620595	0.055181105
219	0xbdf90b29	-0.12160332
220	0xbc17e1c8	-0.009270139
221	0x3e7d23c1	0.2472067
222	0xbc2fed77	-0.010737768
223	0x3d56202c	0.052276775
224	0xbe2f0a2d	-0.17093726
225	0xbc462e3f	-0.012095987
226	0xbe424312	-0.18970898
227	0xbe2cc14d	-0.16870613
228	0x3d84e368	0.06488687
229	0xbdb891de	-0.09012197
230	0xbd5fd521	-0.054646615
231	0x3e10c253	0.14136629
232	0x3dc52f09	0.09628112
233	0x3ddc101e	0.107452616
234	0x3d72bbc1	0.059261087
235	0xbd1d22a1	-0.038363103
236	0x3e2c991e	0.16855285
237	0x3db4c4f7	0.088266306
238	0x3e5acdf1	0.21367623
239	0x3d1b878f	0.037971076
240	0x3dbf43bd	0.09339092
241	0x3dd45cf5	0.10369293
242	0xbd54326e	-0.051805906
243	0xbb48458d	-0.0030559034
244	0xbdef1168	-0.11673242
245	0xbe702dda	-0.23454991
246	0xbd120cb5	-0.03565665
247	0xbe9cdac1	-0.30635646
248	0xbe6eef82	-0.23333552
249	0xbca1f7be	-0.019771453
250	0x3d64ee3e	0.055891268
251	0x3e37c868	0.17947543
252	0x3e44ad30	0.19206691
253	0xbd857031	-0.065155394
254	0xbe25a3b0	-0.16175723
255	0xbea92e36	-0.3304307

bias f4 [128]
0	0x3cef3f0c	0.029204868
1	0x3bd0e299	0.006374669
2	0x3e031847	0.1280223
3	0xbe2869e9	-0.16446652
4	0x3d615a0a	0.05501751
5	0xbd7fb8df	-0.062432166
6	0x3e05e9db	0.1307749
7	0xbdd4b463	-0.103859685
8	0xbc78e5cf	-0.015191509
9	0x3d43a898	0.047768205
10	0x3d60387a	0.05474136
11	0x3d2803a4	0.041019097
12	0x3c3346aa	0.010942141
13	0x3cbe8ca4	0.023260422
14	0xbdc57a3d	-0.09642456
15	0x38ae83a5	8.321487e-05
16	0x3c76e166	0.015068388
17	0x3dd8cdaf	0.10586106
18	0xbdf6bade	-0.12047361
19	0xbd1b94fb	-0.037983876
20	0xbde050bf	-0.10952901
21	0xbdc5b8dc	-0.096544
22	0xbd961fe9	-0.07330305
23	0xbb2fd2ef	-0.0026828607
24	0x3d48653c	0.04892467
25	0xbcb63886	-0.02224375
26	0x3d6933a7	0.056934025
27	0xbc949a40	-0.018139958
28	0xbdf8b09e	-0.12143062
29	0x3cc5c544	0.024141915
30	0x3d053342	0.032519586
31	0xbda289e5	-0.079364575
32	0xbdf7202e	-0.12066685
33	0x3cb67d2d	0.022276485
34	0xbdaae9de	-0.08345388
35	0x3d00417f	0.031312462
36	0x3c1df507	0.009640939
37	0xbcfde3af	-0.030992357
38	0xbd20dfa1	-0.03927577
39	0x3df6ffe1	0.12060524
40	0xbdd29eba	-0.10284181
41	0xbd8dcb27	-0.06923514
42	0xbcff7d9e	-0.031187829
43	0xbd17167d	-0.03688668
44	0x3d66279a	0.05619011
45	0x3dda76fa	0.10667224
46	0x3dfc1f07	0.123106055
47	0xbd5340e4	-0.051575556
48	0xbdaae15f	-0.083437674
49	0x3d3a25af	0.045446094
50	0x3dc4fdd9	0.0961873
51	0xbdcbdc69	-0.09954149
52	0xbd87f517	-0.06638544
53	0xbd73e18f	-0.05954128
54	0xbcb22a84	-0.021748789
55	0xbc920167	-0.017822934
56	0xbde45b6f	-0.11150252
57	0xbc92c0bb	-0.017914167
58	0xbd0a39e2	-0.033746608
59	0x3c701d33	0.014655399
60	0xbaa05ff8	-0.0012235632
61	0xbd4bd194	-0.049760416
62	0x3daaa853	0.083328865
63	0xbd0d339e	-0.034473054
64	0x3d8596ea	0.06522925
65	0xbdd7f47d	-0.10544679
66	0xbd74294a	-0.05960969
67	0x3d31c8b6	0.043404303
68	0x3d4710c0	0.04859996
69	0xbdee7360	-0.116431
70	0x3dcbca4c	0.099506944
71	0xbc9a5b2b	-0.0188423
72	0xbb84f1e8	-0.004057158
73	0xbceda185	-0.029007683
74	0x3dad386b	0.084580265
75	0x3b5ae3cd	0.003339994
76	0x3d7a3f07	0.061095264
77	0xbc0c2a51	-0.008555011
78	0x3df05e88	0.117367804
79	0x3d38f629	0.04515663
80	0x3d54b500	0.051930428
81	0xbd3af9e0	-0.045648456
82	0xbddc45a7	-0.10755473
83	0x3d9151cc	0.0709568
84	0xbe065f43	-0.13122277
85	0xbe012a68	-0.12613833
86	0xbb1f5482	-0.0024311845
87	0xbd01f3a6	-0.031726502
88	0xbd9e3c80	-0.07726383
89	0x3dc01e50	0.09380782
90	0x3ce33942	0.027737264
91	0xbd4bdcb6	-0.049771033
92	0x3d842833	0.0645298
93	0x3d342217	0.043977823
94	0xbdc0cc92	-0.09414019
95	0xbd5654d4	-0.052326992
96	0xbdf9f95a	-0.12205763
97	0xbd9f8c3d	-0.0779042
98	0x3d56bdf9	0.052427266
99	0x3c1573ac	0.009121817
100	0xbd5447ae	-0.05182617
101	0xbd37e115	-0.04489239
102	0xbde3c40e	-0.11121379
103	0xbda04c0b	-0.07827004
104	0xbc273419	-0.010205292
105	0xbb4ccea8	-0.0031251106
106	0x3d8f5922	0.069994226
107	0x3dcdadc7	0.10042911
108	0x3dd2cdb3	0.1029314
109	0x3d1c68aa	0.038185753
110	0xbd82b9b4	-0.06383076
111	0xbd3cd0e9	-0.04609767
112	0xbe051a56	-0.12998328
113	0x3afc368e	0.0019242333
114	0x3d9c0697	0.076184444
115	0xbbd5cd51	-0.0065247198
116	0x3d31530e	0.043292098
117	0x3dd2b807	0.10289007
118	0x3dd9597a	0.106127694
119	0xbd38353c	-0.044972643
120	0x3defd193	0.11709895
121	0x3d8bec58	0.06832188
122	0xbdd4d7a1	-0.103926904
123	0x3ca747d1	0.020419987
124	0x3d913de1	0.070918806
125	0x3ccda0d7	0.025101108
126	0x3dfabe5d	0.1224334
127	0xbd5bdfd6	-0.053680263

weight f4 [128, 128]
0	0xbbbc8cf5	-0.005754108
1	0x3d946220	0.07245278
2	0xbceff734	-0.02929268
3	0xbdfa2af6	-0.122152254
4	0x3db999cc	0.090625376
5	0x3d46c11d	0.04852401
6	0x3d8c2bd4	0.06844297
7	0xbc64d389	-0.01396645
8	0x3d69484e	0.05695372
9	0xbc798a9e	-0.015230803
10	0xbd794985	-0.06086113
11	0x3d5d1469	0.053974543
12	0xbd70b6ba	-0.05876801
13	0xbc17ef73	-0.009273398
14	0xbd040634	-0.03223248
15	0x3db4b70f	0.08823978
16	0xbd0f74c2	-0.03502346
17	0x3d50dfad	0.050994564
18	0x3c9d7219	0.019219445
19	0x3dae7f3e	0.08520363
20	0xbb3443c5	-0.0027506214
21	0x3d074b18	0.0330306
22	0xbdbde1e3	-0.092716
23	0xbd3173cd	-0.043323327
24	0x3d582a5f	0.052774783
25	0x3d83b77f	0.064314835
26	0xbdab6881	-0.08369542
27	0x3dd54500	0.10413551
28	0x3d16494a	0.036690988
29	0xbd65d3e0	-0.056110263
30	0x3d61ccbe	0.055126898
31	0x3dae5045	0.08511404
32	0xbd064cdb	-0.03278814
33	0x3dbefefa	0.09325977
34	0xbd211044	-0.039322153
35	0xbd31154a	-0.043233193
36	0xbdc12bd1	-0.094321854
37	0xbbe3b98e	-0.00694961
38	0x3db294fe	0.08719824
39	0x3ceea3a9	0.029130774
40	0x3dc0c016	0.094116375
41	0x3d94dd3b	0.07268759
42	0xbcb9859c	-0.022646718
43	0xbdc2fcff	-0.095209114
44	0xbd6029a8	-0.054727226
45	0xbcd12f12	-0.02553514
46	0xbc8dd4a2	-0.017313305
47	0x3d85bcaf	0.06530129
48	0xbae720e0	-0.0017633699
49	0x3cc3781b	0.023860982
50	0x3d2ab2cf	0.04167443
51	0x3d996aeb	0.07491096
52	0xbcc0ef2e	-0.02355155
53	0x3cb03892	0.02151135
54	0xbdc0309d	-0.09384272
55	0xbda9c146	-0.08288817
56	0xbd4972bb	-0.04918168
57	0x3d238819	0.039924715
58	0x3d7242e5	0.059145827
59	0x3d85be73	0.06530466
60	0x3d7983e0	0.06091678
61	0xbd0d15ea	-0.034444727
62	0xbca11222	-0.019661967
63	0x3d29d8b4	0.04146643
64	0xbd95cc0f	-0.07314312
65	0x3d96de6d	0.07366643
66	0xbd8ad329	-0.06778557
67	0x3d5f3ba1	0.054500226
68	0x3d555791	0.052085463
69	0x3dac434b	0.084112726
70	0xbd6fcfd2	-0.058547802
71	0x3cbcbe44	0.023039944
72	0xbd543183	-0.05180503
73	0x3d7a247d	0.061069954
74	0x3c0477c4	0.008085195
75	0xbcf9a715	-0.030475179
76	0x3bba2bb2	0.0056814784
77	0x3d565386	0.052325748
78	0xbd365474	-0.044514135
79	0xbd081704	-0.033225074
80	0xbc5f6ede	-0.013637273
81	0x3d5e46c3	0.054266702
82	0xbc61a7df	-0.013772934
83	0xbd27218b	-0.040803473
84	0x3bd48719	0.0064858315
85	0x3cb508b2	0.022098873
86	0x3de32792	0.11091532
87	0xbd3292e5	-0.04359712
88	0x3dd1706f	0.10226523
89	0x3d278d7c	0.040906414
90	0x3db29397	0.08719557
91	0x3d158fd7	0.03651413
92	0xbdc70d0a	-0.09719284
93	0x3d34e16a	0.044160284
94	0xbc3c57f8	-0.011495583
95	0xbda47aff	-0.08031272
96	0x3cb70a37	0.022343738
97	0xbc0bd0ef	-0.0085337
98	0xbd3ae825	-0.045631547
99	0xbcae312f	-0.021263687
100	0x3da5736f	0.08078658
101	0xbd4e3aaf	-0.050348934
102	0x3c4ba9aa	0.012430588
103	0xbd16ec9d	-0.036846746
104	0xbd8b341c	-0.067970484
105	0x3ba73211	0.005102404
106	0xbda78600	-0.08179855
107	0xbc4093bd	-0.011753974
108	0x3c1dc33b	0.009629066
109	0x3d57263b	0.052526694
110	0x3b44d1f7	0.0030032375
111	0xbe4bd5fc	-0.19905847
112	0x3c815434	0.015787221
113	0x3d96bbad	0.07360015
114	0xbd2d2999	-0.042276
115	0x3db753b0	0.08951509
116	0x3d0854ec	0.033284113
117	0xbcb7376e	-0.022365298
118	0xbd081ec7	-0.033232477
119	0x3dcb5d8b	0.09929951
120	0x3d069752	0.032859154
121	0x3ad440f7	0.0016193677
122	0x3d375feb	0.04476921
123	0xba0e2cc1	-0.0005423539
124	0xbd7d3900	-0.061821938
125	0xbd02dd24	-0.031949177
126	0x3dcc7f2b	0.09985193
127	0x3d8211a8	0.06351024
128	0x3b6e5170	0.0036364459
129	0x3da270af	0.07931649
130	0xbd12b33f	-0.035815474
131	0x3d9a6b2f	0.07539975
132	0xbd8a80b7	-0.06762832
133	0x3d642848	0.055702478
134	0x3d449044	0.047989145
135	0x3cf41a24	0.029797621
136	0xbca7e545	-0.020495066
137	0x3cdb9798	0.026805684
138	0x3d24a562	0.040196784
139	0x3d0630d7	0.03276142
140	0xbcfa3d20	-0.030546725
141	0x3c7411f8	0.014896862
142	0xbd0b9101	-0.034073833
143	0xbcd7844a	-0.026308198
144	0x3d112ad7	0.035441246
145	0x3d2fb238	0.042894572
146	0x3d692a72	0.056925245
147	0xbd3d659a	-0.046239473
148	0x3da723e6	0.08161144
149	0x3a3b6159	0.000714799
150	0x3da51a7a	0.08061691
151	0xbdee22f8	-0.116277635
152	0x3c1342cd	0.0089880945
153	0xbd905c29	-0.07048828
154	0x3d0e0b7e	0.03467893
155	0x3c0c3f80	0.008560061
156	0x3d39e605	0.04538538
157	0xbca7f039	-0.02050029
158	0xbc75007c	-0.014953729
159	0x3d4e4a13	0.05036361
160	0xbca2778a	-0.019832391
161	0x3daa2f66	0.08309822
162	0x3da0d19e	0.07852481
163	0x3ca23d3b	0.019804588
164	0x3d28b7bb	0.041190844
165	0x3d3fa107	0.046784427
166	0xbdb8b763	-0.09019353
167	0xbdd61d28	-0.1045478
168	0xbd402b7d	-0.046916474
169	0x3c1334a7	0.008984721
170	0x3d8d244f	0.06891691
171	0x3d498965	0.049203295
172	0x3d34e625	0.044164795
173	0xbd593e93	-0.05303819
174	0x3d7172eb	0.058947485
175	0x3db7b0b6	0.08969252
176	0xbdc8ce00	-0.098049164
177	0x3d99af38	0.075041234
178	0x3caee960	0.021351516
179	0x3d10889e	0.03528654
180	0x3d52b2f2	0.051440187
181	0x3d437b2f	0.0477249
182	0x3cd0910b	0.025459787
183	0xbd03d039	-0.032181
184	0xbc9cf06f	-0.019157616
185	0xbd6ea700	-0.058264732
186	0xbbadcc03	-0.005303861
187	0xbdb929f9	-0.09041209
188	0x3d33e044	0.04391505
189	0xbdc20303	-0.09473231
190	0x3e058849	0.1304027
191	0xbd92241a	-0.07135792
192	0x3da50127	0.080568604
193	0x3c68a14b	0.0141986115
194	0xbd9ab6b9	-0.07554383
195	0x3c2afccc	0.010436248
196	0xbd9f443c	-0.077766865
197	0xbd751fe3	-0.059844863
198	0x3ccc34d5	0.024927536
199	0xbd1717bc	-0.03688787
200	0x3cb9363e	0.022608873
201	0x3dde9ca9	0.10869724
202	0xbd8c6f54	-0.06857172
203	0x3de61de3	0.11236169
204	0xbd4db6af	-0.05022305
205	0xbcb74d60	-0.022375762
206	0x3d36958e	0.04457622
207	0xbd61b9cd	-0.055108834
208	0xbd4a65f4	-0.049413636
209	0xbd0b83f7	-0.0340614
210	0x3d76912b	0.060197037
211	0xbabbf18e	-0.0014338957
212	0x3dc933da	0.09824343
213	0x3ca4767c	0.020076029
214	0xbd82cbb1	-0.06386507
215	0xbda7006a	-0.08154376
216	0xbc9ae0e7	-0.01890607
217	0x3af469a1	0.0018647203
218	0xbd65a292	-0.056063242
219	0x3c0b5869	0.008504965
220	0x3d4d7aab	0.050165813
221	0xbc2a2496	-0.010384699
222	0xbd5061a5	-0.05087437
223	0x3d34c78a	0.044135608
224	0x3cdc71a4	0.026909657
225	0x3c5090b4	0.012729812
226	0x3c900010	0.017578155
227	0x3ce5777a	0.028011072
228	0xbdccf5f8	-0.10007852
229	0xbde6ca48	-0.11269051
230	0xbc1984e4	-0.0093700625
231	0x3d5a32a7	0.053270962
232	0xbd6696a1	-0.056295995
233	0xbd031895	-0.032005865
234	0xbd99cfee	-0.075103626
235	0x3b8b4c6f	0.004251055
236	0x3d3451ff	0.04402351
237	0x3d890e6a	0.066922024
238	0xbdbd8e23	-0.09255626
239	0x3ddfc99b	0.10927125
240	0xbd3dfa2d	-0.046381164
241	0xbdba6cb4	-0.09102765
242	0x3d395b8f	0.045253333
243	0x3d9ad614	0.075603634
244	0x3d0e8938	0.03479883
245	0xbc35bf4e	-0.011092974
246	0x3cd64df3	0.026160216
247	0x3cfc032e	0.030763235
248	0x3d23f286	0.04002621
249	0xbd28224f	-0.041048344
250	0xbce21e5b	-0.027602365
251	0x3d5048b9	0.050850604
252	0x3b9ec4e1	0.004845247
253	0xbb8d1cc8	-0.0043064095
254	0x3ce5df66	0.028060626
255	0x3c39f7ff	0.011350631

bias f4 [128]
0	0xbd0b87d7	-0.034065094
1	0xbd4dadbc	-0.050214514
2	0x3ce97eb0	0.028502792
3	0xbd644449	-0.055729184
4	0x3d4ae583	0.049535286
5	0x3db15278	0.08658308
6	0xbc359a80	-0.011084199
7	0x3c7211f6	0.01477479
8	0xbccef04e	-0.02526107
9	0x3d61c62b	0.05512063
10	0xbcb33bf9	-0.021879183
11	0x3d9dd0c6	0.07705836
12	0x3d9600c2	0.07324363
13	0x3ca9b612	0.0207167
14	0x3ce40ea0	0.027839005
15	0xbd19517c	-0.037431225
16	0x3d46cf0e	0.048537306
17	0xbdb03db9	-0.08605523
18	0x3c9b964b	0.018992564
19	0x3d886f66	0.066618726
20	0x3d597b46	0.05309608
21	0xbd27bd0a	-0.040951766
22	0xbd148b83	-0.03626586
23	0xbd05c51f	-0.032658692
24	0x3da06d8d	0.07833395
25	0xbd878a42	-0.066181675
26	0x3d1f3a08	0.038873702
27	0xbd9affa0	-0.07568288
28	0xbd8b2770	-0.067946315
29	0x3d8694d8	0.065713584
30	0x3af1a99d	0.001843739
31	0xbd746edc	-0.059676036
32	0xbaa99441	-0.001293786
33	0xbdad97f2	-0.08476247
34	0x3c18306b	0.0092888875
35	0x3c3c21ed	0.011482698
36	0xbd49fb61	-0.049312
37	0x3d2d3a2a	0.042291798
38	0xbc166976	-0.009180417
39	0x3d57cc38	0.052684993
40	0xbda20b80	-0.0791235
41	0xbd42830c	-0.047488257
42	0x3d0693b8	0.03285572
43	0xbdcb5711	-0.09928716
44	0xbd9e0bea	-0.07717116
45	0xbd4c69e2	-0.049905665
46	0x3d4b9dbd	0.049710978
47	0x3d7077f7	0.058708157
48	0x3ccd3de8	0.025053933
49	0x3d3b0836	0.045662127
50	0x3cfc69d4	0.030812182
51	0x3d5bfa94	0.053705767
52	0x3cbe97f2	0.023265813
53	0xbd80269c	-0.06257364
54	0xbd3b927a	-0.045793988
55	0x3d8923c7	0.06696277
56	0xbd0b6d5c	-0.03403984
57	0xbd901e3d	-0.070370175
58	0x3dbd80b8	0.09253067
59	0x3d659df4	0.05605884
60	0x3d12d74d	0.035849858
61	0x3c558523	0.013032231
62	0x3c0af3b2	0.008480953
63	0xbd109546	-0.03529861
64	0x3d110cff	0.035412785
65	0x3ccb2350	0.024797112
66	0xb8bc178d	-8.968925e-05
67	0xbcd20cbf	-0.025640843
68	0xbaacc227	-0.001318042
69	0xbc361a38	-0.0111146495
70	0xbd488810	-0.048957884
71	0x3d60fa3a	0.054926135
72	0xbcd845f2	-0.02640054
73	0xbd6385bc	-0.05554746
74	0x3d949389	0.072547026
75	0x3d873937	0.0660271
76	0x3cfec364	0.031099029
77	0x3cb8d639	0.022563087
78	0xbd39be36	-0.045347415
79	0x3d2c2b5b	0.042033534
80	0x3d965d11	0.0734197
81	0x3d4d95cc	0.050191686
82	0xbcfa98e1	-0.030590476
83	0x3bbf04d4	0.005829433
84	0xbd9df20c	-0.077121824
85	0xbd9f4eb6	-0.07778685
86	0x3d5ec38d	0.05438571
87	0xbce35103	-0.02774859
88	0x3dc3b34a	0.09555681
89	0xbc357e85	-0.011077528
90	0x3d7c887f	0.06165361
91	0x3d45ce62	0.048292525
92	0xbd4f828d	-0.050661612
93	0xbc329353	-0.010899383
94	0xbc745e9e	-0.014915137
95	0xbd94675c	-0.07246277
96	0x3b63d79d	0.0034765967
97	0xbdc4888c	-0.09596357
98	0x3b7956da	0.0038046152
99	0x3d865450	0.0655905
100	0xbc10a341	-0.008827985
101	0x3da65d43	0.08123257
102	0xbcfdb5f5	-0.030970553
103	0x3d0640c6	0.032776617
104	0x3b83b221	0.0040190374
105	0x3ccc8584	0.024966009
106	0x3d9c9d1f	0.07647156
107	0xbdb6f5c6	-0.08933596
108	0x3cf90c67	0.030401422
109	0x3c8136e8	0.015773252
110	0xbd819789	-0.06327731
111	0x3d4cb75a	0.049979545
112	0x3d6f57b4	0.05843325
113	0x3cb3df81	0.02195716
114	0x3c3e916a	0.011631349
115	0xbd461707	-0.048361804
116	0xbdb31b89	-0.08745486
117	0xbd9a9c40	-0.075493336
118	0x3d996e25	0.074917115
119	0x3d4295f6	0.047506295
120	0xbd0baab2	-0.034098335
121	0x3d0d8fc5	0.034560937
122	0x3dbf44c6	0.09339289
123	0x3cdf22dd	0.027238304
124	0xbcb886bc	-0.022525184
125	0xbc03ba82	-0.008040072
126	0xbb7999fa	-0.0038086162
127	0x3cdbb2f9	0.02681874

weight f4 [128, 128]
0	0xbd6d78c4	-0.0579765
1	0xbe0ad894	-0.1355918
2	0xbc325b61	-0.010886044
3	0xbdb4ef01	-0.08834649
4	0x3de6c7c9	0.11268575
5	0x3cf5aba0	0.029989064
6	0x3d36aba9	0.0445973
7	0x3dbafbe6	0.09130077
8	0xbd737254	-0.059435204
9	0x3c287030	0.010280654
10	0x3d15ca49	0.036569867
11	0x3da76abe	0.08174656
12	0xbd190d99	-0.037366483
13	0x3d9e2fd9	0.0772397
14	0x3db5e8d9	0.08882303
15	0x3da68fb8	0.08132881
16	0xbc7aa7e3	-0.015298816
17	0x3d8949f5	0.06703559
18	0x3cf7fd68	0.0302722
19	0x3d2634c6	0.040577672
20	0xbd9079c2	-0.070544735
21	0x3d8e733b	0.06955572
22	0x3c7f1617	0.0155692315
23	0xbdc8d50a	-0.09806259
24	0x3c530174	0.012878764
25	0xbde538c3	-0.11192467
26	0xbdd41182	-0.10354902
27	0x3c07c481	0.008286596
28	0x3d8a2110	0.067445874
29	0x3d02e130	0.031953037
30	0x3de3cc1b	0.111229144
31	0xbd6b985a	-0.05751834
32	0x3deafa5c	0.114735335
33	0xbca4258b	-0.020037433
34	0x3d854eaf	0.06509148
35	0x3d7ec028	0.062194973
36	0xbc2b5765	-0.010457848
37	0x3d96ec79	0.07369322
38	0x3c90ba4a	0.017666955
39	0x3d627c39	0.05529425
40	0x3d7949f5	0.060861547
41	0xbced5ffa	-0.02897643
42	0x3d4dcd8e	0.05024486
43	0x3d44e386	0.048068546
44	0xbdb56070	-0.088562846
45	0xbd878732	-0.06617583
46	0x3d9dd8e4	0.07707384
47	0xbbf652e6	-0.0075172065
48	0xbc05fa55	-0.00817736
49	0xbdaba599	-0.083811946
50	0xbd4fcd4a	-0.05073289
51	0x3dd44e05	0.103664435
52	0xbd7bed32	-0.061505504
53	0x3e1c8c54	0.15287906
54	0xbda25def	-0.07928073
55	0xbd3c7b69	-0.04601613
56	0x3d6fd921	0.05855668
57	0xbd4acaba	-0.04950974
58	0x3bc9fb6d	0.0061640055
59	0x3d3f0c63	0.046642672
60	0xbda7da56	-0.08195941
61	0xbd4218cf	-0.04738694
62	0xbb2ee880	-0.0026688874
63	0xbc9a801f	-0.018859921
64	0x3dd542dd	0.10413144
65	0xbdb4cdc0	-0.08828306
66	0xbe004efb	-0.12530129
67	0x3d75413e	0.059876673
68	0xbde62c9b	-0.112389766
69	0xbda2a85d	-0.07942269
70	0xbd9e5333	-0.07730713
71	0x3da2e022	0.07952906
72	0x3de55a43	0.11198857
73	0xbd22ef13	-0.03977878
74	0xbd024705	-0.03180601
75	0xbc539f38	-0.012916379
76	0x3e0235ff	0.1271591
77	0x3d2268da	0.039650775
78	0x3ccf1cd8	0.025282308
79	0xbd837c39	-0.06420178
80	0xbd037e89	-0.032103095
81	0xbbe7fc73	-0.007079655
82	0x3c66831b	0.014069344
83	0xbbbf8ccb	-0.0058456413
84	0x3d63d6ae	0.055624656
85	0x3d466847	0.04843929
86	0x3d882698	0.06647986
87	0xbd8c70be	-0.06857441
88	0xbda649ec	-0.08119568
89	0xbc9cde47	-0.019148959
90	0x3d7de391	0.061984602
91	0xbac6fda3	-0.0015181791
92	0x3d9b8569	0.07593805
93	0x3db320ad	0.08746467
94	0x3d842765	0.064528264
95	0x3d286743	0.041114103
96	0x3d21fd37	0.039548125
97	0xbdf84856	-0.12123172
98	0xbda0d9e0	-0.07854056
99	0x3d7c7a35	0.061639983
100	0xbe01a0e8	-0.12659037
101	0xbd26e9c9	-0.0407503
102	0xbd1bc22e	-0.03802698
103	0xbc10cf94	-0.008838553
104	0x3d9c296f	0.0762509
105	0x3cc6f55b	0.024286916
106	0xbb98bae9	-0.0046609533
107	0x3bf24316	0.007393251
108	0x3d8e08ba	0.06935258
109	0x3d87bdf6	0.06628029
110	0xbc927af1	-0.017880889
111	0x3e668a71	0.22513749
112	0x3d01b4a2	0.031666405
113	0x3d65f618	0.056142896
114	0xbdd28e84	-0.10281089
115	0xbbff880a	-0.0077981995
116	0x3d8ac51a	0.067758754
117	0xbd847aee	-0.064687595
118	0x3da23766	0.07920723
119	0xbd8cf720	-0.06883073
120	0xbcfc9000	-0.030830383
121	0x3dfcdf6e	0.12347303
122	0xbc516976	-0.0127814915
123	0x3d7548e3	0.059883963
124	0xbc898adc	-0.016789846
125	0xbc1f915f	-0.009739249
126	0xbd332e3f	-0.043745276
127	0x3d062b41	0.032756094
128	0x3c2bfa1d	0.010496643
129	0x3c6fcb85	0.014635925
130	0xbc100fa0	-0.008792788
131	0xbc2cb1c2	-0.010540428
132	0xbd972a4f	-0.073811166
133	0x3d369e10	0.044584334
134	0x3dac54c0	0.08414602
135	0x3ca59e5c	0.020217113
136	0x3b186b99	0.0023257493
137	0xbe085d5d	-0.13316865
138	0x3d09adeb	0.033613127
139	0x3d535993	0.051599097
140	0xbc70a4ad	-0.014687699
141	0x3d8bbc31	0.06823004
142	0x3dc779a3	0.09739997
143	0x3d00f553	0.03148396
144	0x3d4f34f4	0.05058761
145	0xbdccef20	-0.10006547
146	0xbd0d72f8	-0.03453347
147	0x3def538d	0.11685858
148	0xbcb2690f	-0.021778611
149	0xbd68fd6e	-0.056882314
150	0xbc8e0326	-0.017335486
151	0xbd83b8da	-0.06431742
152	0xbccae195	-0.024765769
153	0xbdcaab89	-0.09895999
154	0x3d23a049	0.03994778
155	0x3d5a0517	0.05322751
156	0x3cc229ad	0.023701513
157	0xbbdceda5	-0.0067421966
158	0xbdce19ed	-0.10063539
159	0xb7b0c47e	-2.1072334e-05
160	0x3d7579da	0.05993066
161	0x3e514e2a	0.20439973
162	0x3ce49d94	0.02790717
163	0x3cb2e519	0.021837758
164	0xbd44d73a	-0.04805682
165	0x3df6cd2f	0.120508544
166	0x3d6ac72d	0.057318855
167	0x3da9b9ba	0.08287378
168	0x3db0d456	0.0863425
169	0xbd7d5c3f	-0.06185555
170	0x3d8a0dcc	0.06740913
171	0x3c97fb02	0.018552307
172	0x3dbb7c06	0.09154515
173	0x39b04e55	0.00033627698
174	0xbe0123fb	-0.12611382
175	0x3d1710f0	0.036881387
176	0xbc4e78a3	-0.012602004
177	0xbc0bbffb	-0.008529658
178	0x3cbb23bc	0.022844188
179	0xbdc7fd6a	-0.09765132
180	0x3c354f21	0.011066229
181	0x3c3e46ee	0.011613591
182	0x3cf7643d	0.030199165
183	0xbd4aa5a7	-0.049474385
184	0x3c9114cf	0.017710118
185	0xbc938b27	-0.018010689
186	0x3dae03ff	0.08496856
187	0x3d1ed4dc	0.038777217
188	0xbdb3ad13	-0.08773246
189	0xbc1024a6	-0.0087978
190	0xbd8b29d6	-0.06795089
191	0x3d79199f	0.06081545
192	0x3c121286	0.008915549
193	0x3d1afd75	0.03783937
194	0x3c679630	0.014134929
195	0x3cb84c19	0.022497224
196	0xbe05e6fc	-0.13076395
197	0x3d2d1666	0.04225769
198	0xbd808a7a	-0.06276412
199	0xbbdb2343	-0.006687553
200	0x3d41361e	0.04717075
201	0xbd30f6a6	-0.043203972
202	0xbd82ac97	-0.06380575
203	0xbd6b25b0	-0.05740899
204	0xbb5383a7	-0.0032274516
205	0x3de5af91	0.11215127
206	0xbd070d97	-0.032971945
207	0xbe16453a	-0.14674845
208	0x3da880af	0.082276694
209	0x3d948a98	0.07252997
210	0xbdcc1fa7	-0.09966975
211	0x3cb2b004	0.021812446
212	0x3d2ea0bb	0.042633753
213	0xbd074da5	-0.033033032
214	0xbdb2a37c	-0.087225884
215	0xbd52e889	-0.051491294
216	0xbc998f71	-0.018745156
217	0x3d3762a5	0.04477181
218	0xbd872297	-0.06598394
219	0x3d6181ed	0.055055548
220	0xbcc59ffa	-0.024124134
221	0xbd5e173a	-0.05422137
222	0xbcd735e2	-0.02627081
223	0x3dbcb9c6	0.09215121
224	0xbd6dfa6c	-0.05810015
225	0x3d52841c	0.05139552
226	0x3d99906f	0.07498252
227	0x3c93a68f	0.018023757
228	0x3cb43bb2	0.022001121
229	0xbda6d55b	-0.08146163
230	0x3c8f8104	0.017517574
231	0x3d3a740f	0.04552084
232	0xbd3c3349	-0.045947347
233	0xbd99a8af	-0.07502877
234	0xbdc56261	-0.09637905
235	0xbdd7c458	-0.105354965
236	0x3d931785	0.0718222
237	0x3dd30079	0.103028245
238	0x3e148ac6	0.14506063
239	0xbd4c5560	-0.049886107
240	0xbd39ae7a	-0.04533241
241	0xbc9b29e6	-0.018940877
242	0xbbe96bbe	-0.0071234396
243	0xbdb00dfb	-0.085964166
244	0x3db7c91e	0.08973907
245	0xbcacb044	-0.021080144
246	0xbc68a0c8	-0.0141984895
247	0x3c7ee809	0.015558251
248	0x3b87df20	0.0041464716
249	0xbcfa9eab	-0.030593237
250	0x3c7748ea	0.015093068
251	0xbcfbb0bf	-0.030723928
252	0xbccd4d3f	-0.025061248
253	0x3d8c5c4e	0.06853543
254	0x3c53d7d4	0.012929875
255	0xbd97681d	-0.07392905

bias f4 [128]
0	0x3b7b7870	0.0038371347
1	0x3c85e203	0.016343122
2	0x3cfcad5b	0.030844381
3	0x3bd09e16	0.0063665016
4	0xbbf19e45	-0.0073736035
5	0x3b9ead79	0.004842457
6	0xbc3cf725	-0.011533533
7	0xbd824d53	-0.06362405
8	0xbc989abd	-0.018628472
9	0xbd8abdfa	-0.067745164
10	0xbd8d6b05	-0.06905178
11	0xbca46564	-0.020067878
12	0xbc6f34db	-0.014600004
13	0x3d658918	0.056038946
14	0x3bcf5adf	0.0063279714
15	0xbd89bdc1	-0.06725646
16	0x3ce5f92b	0.028072914
17	0xbcb9b64a	-0.02266993
18	0x3c88c71a	0.016696502
19	0xbd84efc2	-0.06491043
20	0xbd541b50	-0.05178386
21	0x3cb9bf26	0.022674154
22	0x3c2986f8	0.01034712
23	0xbcc2f146	-0.023796689
24	0xbc4b95cb	-0.01242585
25	0xbd492ffe	-0.049118035
26	0xbd8287fc	-0.06373593
27	0x3b6ab517	0.0035813504
28	0x3ce45f20	0.02787739
29	0xbcb54551	-0.02212778
30	0x3bdda3c7	0.0067639085
31	0x3b5d18c9	0.0033736697
32	0xbd3869b3	-0.045022678
33	0xbbf42243	-0.0074503734
34	0xbd3ed524	-0.046589985
35	0x3d712309	0.058871303
36	0x3d04e741	0.032447103
37	0x3cc91eaf	0.024550764
38	0x3ce8cac1	0.028416993
39	0x3b992a0a	0.004674201
40	0x3c853af8	0.01626347
41	0x3a066392	0.00051265315
42	0xbd3253bf	-0.043536898
43	0x3d24ea63	0.04026259
44	0xbcad3290	-0.021142274
45	0xbdb5b32e	-0.088720664
46	0x3b900da1	0.004396156
47	0xbd8d49b2	-0.06898822
48	0x3c34b275	0.011028876
49	0xbbc7831a	-0.0060886266
50	0xbd68b418	-0.056812376
51	0xbbf726d1	-0.007542469
52	0x3bebf5b4	0.007200921
53	0x3c949128	0.018135622
54	0xbd26842a	-0.040653385
55	0xbd3abda5	-0.045591015
56	0xbcb40003	-0.021972662
57	0xbc5609f3	-0.0130638955
58	0xbced843f	-0.028993724
59	0x3d61823f	0.055055853
60	0x3c45aaa4	0.01206461
61	0xbbcd707d	-0.006269513
62	0xbc420492	-0.01184191
63	0x3d3cd48b	0.046101134
64	0x3ccf0063	0.02526874
65	0xbd85d77d	-0.06535242
66	0xbd8e7f27	-0.06957846
67	0xbd7aa3fd	-0.061191548
68	0x3d083d06	0.03326132
69	0xbcccfad2	-0.025021944
70	0x3d3c7a11	0.04601485
71	0x3b1be875	0.0023789678
72	0x3d0a4d57	0.033765163
73	0x3d86d7f0	0.065841556
74	0x3d1fa93f	0.038979765
75	0x3d4339e6	0.047662638
76	0x3d58d81a	0.052940466
77	0xba9b101a	-0.001183036
78	0xbd0dbbaa	-0.0346028
79	0x3d23cb77	0.03998896
80	0x3d8d1484	0.06888679
81	0xbd7adceb	-0.06124584
82	0x3d96df32	0.0736679
83	0x3ca63174	0.020287253
84	0xbc87dfaf	-0.016586153
85	0x3c420cb7	0.011843852
86	0xbd36f432	-0.044666477
87	0x3b530cee	0.0032203752
88	0xbcdba9e4	-0.026814409
89	0xbd25b2c3	-0.040453684
90	0xbd1b74fe	-0.03795337
91	0xbd2c8cd4	-0.04212649
92	0x3caee9bc	0.021351688
93	0xbc31325b	-0.010815228
94	0xbd75820d	-0.05993848
95	0x3d7a0c41	0.061046842
96	0x3d07d1dd	0.033159126
97	0xbcbb9159	-0.022896456
98	0xbd863ebd	-0.06554935
99	0x3cfe6085	0.031051883
100	0x3cc418ed	0.023937667
101	0xbcbd78c1	-0.023128869
102	0xbd62a42b	-0.055332344
103	0x3d3a0cfd	0.045422543
104	0xbd7ed4be	-0.062214606
105	0xbc89b03c	-0.016807668
106	0xb8851be5	-6.34713e-05
107	0xbd5ab2fd	-0.053393353
108	0x3d78925d	0.060686458
109	0xbcd5d8d3	-0.026104366
110	0xbca2edf3	-0.019888854
111	0x3c2e9757	0.010656199
112	0xbba52525	-0.0050398284
113	0x3a47f542	0.0007627794
114	0xbd5c4a5b	-0.05378185
115	0x3aacd721	0.0013186672
116	0xbcc32802	-0.023822788
117	0x3c58e63a	0.013238484
118	0xbc0af690	-0.008481637
119	0x3c4e0837	0.012575201
120	0xbbafa15b	-0.0053598112
121	0xbc11127e	-0.008854507
122	0x3d8e33df	0.069434874
123	0xbd714852	-0.05890686
124	0x3c83f02e	0.016105738
125	0xbbce7f0c	-0.0063017663
126	0x3d95ef3f	0.07321023
127	0xbd24ea36	-0.040262423

weight f4 [128, 128]
0	0xbae4ee22	-0.0017465989
1	0x3c50ba11	0.012739674
2	0xbcc6789f	-0.024227438
3	0x3da42a8e	0.08015929
4	0x3d2b2f4f	0.041793164
5	0x3dd96855	0.10615603
6	0x3d2c8656	0.0421203
7	0x3d2c3b39	0.042048667
8	0x3d3d2122	0.046174176
9	0xbb59b0c6	-0.0033216937
10	0xbda31f68	-0.07964975
11	0xbc84a41f	-0.01619154
12	0xbd267b97	-0.04064521
13	0xbda57eca	-0.08080824
14	0x3da73b9d	0.08165667
15	0x3d2c84e4	0.042118922
16	0xba5154bb	-0.0007985343
17	0x3d1923f1	0.037387792
18	0xbd4b3ddd	-0.049619544
19	0x3e004d1c	0.12529415
20	0x3db620f4	0.08893004
21	0x3ba112bf	0.004915565
22	0x3c8712c6	0.016488444
23	0xbd36e766	-0.044654272
24	0x3d446756	0.04795011
25	0xbd8ae428	-0.067817986
26	0x3d83bd96	0.06432645
27	0xbe047e2b	-0.12938754
28	0xbd76f368	-0.060290724
29	0xbdd1ec66	-0.102501675
30	0xbd74d76f	-0.059775766
31	0x3bfe1886	0.0077543883
32	0x3bb1b573	0.0054232418
33	0x3baa9459	0.0052056727
34	0xbdb5352c	-0.08848032
35	0xbd6a509d	-0.057205785
36	0xbd33fa71	-0.04394001
37	0x3e081c07	0.13291942
38	0x3da56d8c	0.08077535
39	0xbc97fb0e	-0.01855233
40	0x3c187cf9	0.00930714
41	0x3d7e1915	0.06203564
42	0x3cf2ee41	0.029654624
43	0x3bc7ff9a	0.006103468
44	0x3d99dce9	0.075128384
45	0x3d746891	0.059670035
46	0x3d8adb34	0.06780091
47	0xbdccdc16	-0.100029156
48	0xbd9c9f4c	-0.07647571
49	0x3d565a8c	0.052332446
50	0x3cdd83c6	0.027040374
51	0xbc2a57c4	-0.0103969015
52	0x3ae4d74d	0.0017459184
53	0x3d26807d	0.04064988
54	0x3d80c4d7	0.06287544
55	0xbd611386	-0.05495026
56	0xbd8f4b47	-0.0699678
57	0x3d9c550e	0.076334104
58	0xbd69bc41	-0.0570643
59	0x3d85f1ad	0.065402366
60	0xbddc6311	-0.10761083
61	0xbcab6cdd	-0.020925933
62	0xbc3c643c	-0.011498507
63	0x3d06b23a	0.032884814
64	0x3d60d2cb	0.054888528
65	0xbd2f149c	-0.042744264
66	0x3d93b964	0.07213095
67	0xbd05e016	-0.032684408
68	0x3de83cc6	0.113397166
69	0xbcfa4dac	-0.030554615
70	0xbd97ed3e	-0.07418297
71	0x3d9a3b58	0.0753085
72	0x3ceb30ae	0.028709736
73	0x3e28ad31	0.16472317
74	0x3d3fd83c	0.046837077
75	0xbdbf1f88	-0.09332186
76	0x3b3847c7	0.0028118955
77	0x3dccca13	0.0999948
78	0xbce0acfa	-0.027426232
79	0xbbae756e	-0.0053240573
80	0xbd59b148	-0.053147584
81	0xbd5e4584	-0.054265514
82	0xbda0a604	-0.07844165
83	0xbc811e34	-0.015761472
84	0xbdeac320	-0.114629984
85	0xbd87dd3a	-0.066339925
86	0x3d820122	0.06347872
87	0xbd1645d6	-0.036687694
88	0x3c722446	0.014779156
89	0x3cf53043	0.02993024
90	0x3d02a661	0.031896953
91	0xbdb5d876	-0.08879177
92	0xbd74e990	-0.059793055
93	0xbb02bd01	-0.001994908
94	0xbcb8168f	-0.022471694
95	0xbd8ba7f6	-0.068191454
96	0x3d5a32e5	0.053271193
97	0x3cb385f2	0.021914456
98	0xbde32c77	-0.11092465
99	0xbd017770	-0.031608045
100	0xbd689ec4	-0.056792036
101	0x3cec7275	0.028863171
102	0xbd89d784	-0.067305595
103	0x3cb5e08e	0.022201803
104	0x3c996803	0.018726354
105	0xbd5104f4	-0.051030114
106	0x3cc3b357	0.023889227
107	0x3c6c68c6	0.014429277
108	0xbd48daed	-0.04903691
109	0xbe044066	-0.12915191
110	0xbe0dc6a2	-0.13845304
111	0xba11e832	-0.0005565911
112	0xb9854558	-0.00025419402
113	0x3d7c2731	0.061560813
114	0x3dc36925	0.09541539
115	0x3d966233	0.07342949
116	0xbce43293	-0.027856147
117	0x3c24bb6b	0.01005445
118	0xbda1f99c	-0.07908937
119	0x3d879146	0.066195056
120	0x3d5da18b	0.054109138
121	0xbd93d464	-0.07218245
122	0xbd995547	-0.074869685
123	0xbdd7d617	-0.10538881
124	0x3d8f86ea	0.07008155
125	0x3d926511	0.07148183
126	0xbdf0033e	-0.117193684
127	0xbbf44ab2	-0.0074551934
128	0xbc9a775f	-0.018855749
129	0xbcabb483	-0.020960098
130	0xbd743459	-0.059620235
131	0xbdaa5f68	-0.083189785
132	0xbd598b2e	-0.053111248
133	0x3d9edfde	0.07757543
134	0xbd3d0d12	-0.046155043
135	0x3d76dfcd	0.060272027
136	0xbbe52dae	-0.006993971
137	0xbd9c2e8e	-0.07626067
138	0xbd2c904b	-0.042129796
139	0x3c40a515	0.011758109
140	0x3db52beb	0.08846267
141	0xbda03f4e	-0.078245744
142	0xbcddf486	-0.027094137
143	0x3c8757ae	0.016521301
144	0x3db90037	0.09033244
145	0x3d0cd103	0.034379017
146	0x3dbb0d3c	0.09133384
147	0x3d621285	0.055193443
148	0x3d4f70a6	0.05064454
149	0xbd3243f4	-0.043521836
150	0x3d683707	0.056693103
151	0x3cf12837	0.029438121
152	0x3d558a22	0.052133687
153	0xbcf86063	-0.030319398
154	0x3c569de4	0.0130991675
155	0x3cc04f3c	0.023475282
156	0x3cdc6465	0.02690334
157	0x3d012dc6	0.031537794
158	0xbc2fa91d	-0.010721472
159	0xbd21973b	-0.039450865
160	0x3d4342da	0.047671176
161	0x3de5dc7c	0.11223695
162	0xbb9fbfb9	-0.00487515
163	0xbda18716	-0.07887094
164	0xbc14e1ee	-0.009087069
165	0xbd7224bf	-0.059117075
166	0x3da96c32	0.0827259
167	0x3ccead6c	0.025229178
168	0xbce5ceee	-0.028052773
169	0x3c4cf059	0.012508475
170	0x3d25d02d	0.040481735
171	0x3d874d08	0.066064894
172	0x3d3d0247	0.04614475
173	0x3d99f64a	0.07517679
174	0x3da13c6d	0.078728534
175	0x3d8bd2b5	0.068272986
176	0x3d8fe49b	0.07026025
177	0x3d8217e0	0.0635221
178	0x3d098077	0.03356978
179	0xbd139dd9	-0.036039207
180	0x3c077a62	0.008268924
181	0x3d3b705f	0.045761462
182	0x3d6fb4ba	0.058521964
183	0xbda566ca	-0.08076246
184	0x3d0831e4	0.033250704
185	0x3d11b570	0.035573423
186	0x3cf91821	0.030407013
187	0x3d5ce8f9	0.053933118
188	0xbd996a9f	-0.074910395
189	0xbd39fde0	-0.04540813
190	0x3d92a04c	0.071594805
191	0xbd046ddf	-0.032331344
192	0xbdb13b6f	-0.08653914
193	0xba55fd7a	-0.0008163076
194	0x3d09448b	0.033512633
195	0xbd31c1ba	-0.043397643
196	0xbc80d709	-0.015727537
197	0xbd7d3bdb	-0.06182466
198	0xbc81d64e	-0.015849259
199	0x3c165b4a	0.009177038
200	0xbc43940e	-0.011937154
201	0x3d2c171b	0.042014223
202	0x3d9d4268	0.076786816
203	0xbcd587b0	-0.026065677
204	0xbd1e2e73	-0.038618516
205	0x3db8d9db	0.09025928
206	0x3cb3be96	0.021941464
207	0xbda258dc	-0.07927105
208	0x3d09a3f0	0.03360361
209	0xbd9ab020	-0.075531244
210	0x3de4549f	0.11148953
211	0xbcc89667	-0.02448578
212	0xbd851476	-0.06498043
213	0x3d506b9c	0.050883874
214	0x3be4e7e3	0.006985651
215	0x3d15e2f5	0.036593396
216	0xbbed606d	-0.007244161
217	0xbcf5c97f	-0.030003307
218	0xbda8299b	-0.082110606
219	0x3d9b77bf	0.07591199
220	0xbd9294e1	-0.07157303
221	0xbcb81654	-0.022471584
222	0xbcca8984	-0.024723776
223	0xbc2291f6	-0.009922495
224	0x3d37cbd9	0.04487214
225	0xbc8f89df	-0.017521797
226	0xbcd2384e	-0.025661614
227	0xbd2396f1	-0.03993887
228	0x3a4018a0	0.0007327888
229	0x3d913f8d	0.070921995
230	0xbd2b21e0	-0.041780353
231	0x3d829f4e	0.06378041
232	0xbc77d673	-0.015126812
233	0xbcf1daff	-0.02952337
234	0x3d83abb2	0.06429233
235	0x3dbd3183	0.09237959
236	0x3d15cf64	0.036574736
237	0xbd8f9060	-0.07009959
238	0x3b88483d	0.004159002
239	0x3d71811a	0.05896101
240	0x3d1ecfed	0.038772512
241	0xbd78b163	-0.060716044
242	0xbccf6c8f	-0.02532032
243	0xbcef26c7	-0.029193295
244	0xbcf5eb3b	-0.030019393
245	0x3baef37c	0.005339084
246	0xbd6d2af3	-0.057902288
247	0xbc92684c	-0.017871998
248	0xbdc30625	-0.09522656
249	0xbce86ccb	-0.028372189
250	0x3d9e2202	0.0772133
251	0x3da2724a	0.07931955
252	0x3c8b80a7	0.01702912
253	0xbd4684e1	-0.048466567
254	0x3d22d6a2	0.03975547
255	0x3d66b443	0.056324255

bias f4 [128]
0	0xbdb348b6	-0.08754103
1	0x3cc81f67	0.024429036
2	0x3d8cf427	0.06882506
3	0x3da05c96	0.07830159
4	0x3d8e97b6	0.0696253
5	0xbc9ef2a4	-0.01940281
6	0x3d9dd6cc	0.07706985
7	0xbc82b7a1	-0.015956702
8	0xbdbc86c1	-0.0920539
9	0x3c8f2d95	0.01747779
10	0xbcb70ae1	-0.022344055
11	0xbcef87b9	-0.029239522
12	0xbda64ceb	-0.0812014
13	0xbca433de	-0.020044263
14	0x3d1c26a5	0.03812279
15	0xbd150edf	-0.036391135
16	0xbca606a7	-0.020266844
17	0xbc8727dd	-0.0164985
18	0xbd8c2e1c	-0.06844732
19	0xbcbaa623	-0.022784298
20	0x3ccd6fa7	0.025077654
21	0x3d8f8393	0.07007518
22	0x3d906a44	0.070515186
23	0xbd880a68	-0.0664261
24	0xbd6459aa	-0.055749573
25	0x3ca8ff43	0.02062953
26	0x3d491d61	0.049100284
27	0xbd17d3bc	-0.03706716
28	0x3b71fb58	0.0036923494
29	0xbd16c696	-0.03681048
30	0xbaeb5292	-0.0017953685
31	0x3c7351a5	0.014851009
32	0x3d86fae2	0.06590821
33	0x3d1a236c	0.037631437
34	0xbc17a5cc	-0.009255838
35	0x3d87c71d	0.06629775
36	0x3be0f6ca	0.006865357
37	0xbceff863	-0.029293245
38	0xbcd44f69	-0.025916772
39	0x3c937c03	0.01800347
40	0xbd5d9d0b	-0.054104846
41	0xbbff53d2	-0.0077919746
42	0xbb5e8d8c	-0.003395888
43	0x3da2009f	0.07910275
44	0xbd86b94e	-0.06578313
45	0xbbdb3472	-0.0066896016
46	0x3ce07d34	0.027403452
47	0xbcbd0287	-0.023072494
48	0x3d33ab9b	0.043864828
49	0xbd8fe0a2	-0.07025267
50	0x3d5b8d5c	0.053601608
51	0x3d36999c	0.044580087
52	0xbd9fc080	-0.07800388
53	0x3d67b92d	0.05657308
54	0xbaffe23f	-0.0019522383
55	0x3ce44c2a	0.02786835
56	0x3c675290	0.0141188055
57	0x3c77f56c	0.015134197
58	0xbcd920e6	-0.026504945
59	0x3d48687d	0.048927773
60	0xbcac00dd	-0.020996505
61	0xbd83a00d	-0.06427012
62	0x3ac6a6cc	0.001515591
63	0x3d1a739a	0.037707902
64	0x3d61e327	0.05514827
65	0xbd163086	-0.03666737
66	0x3c4908a4	0.0122701265
67	0x3d873a99	0.066029735
68	0xbd4c0e67	-0.049818423
69	0x3c89a814	0.016803779
70	0x3d0ed4e5	0.034871
71	0xbb012b9b	-0.0019709829
72	0x3d42f136	0.047593318
73	0x3ca22afd	0.019795889
74	0x3d4fc688	0.050726444
75	0x3ca3129e	0.019906338
76	0xbbb2b836	-0.0054540886
77	0x3d1eb9c4	0.03875138
78	0xbc2ac5eb	-0.010423164
79	0xbda33cd0	-0.079705834
80	0x3cbbcce5	0.02292485
81	0xbd95c0b5	-0.073121466
82	0xbd0d7247	-0.03453281
83	0x3d186ec2	0.037215002
84	0xbd1735e1	-0.036916617
85	0xbc99c773	-0.018771863
86	0x3d98e121	0.07464815
87	0x3ccbf9be	0.02489936
88	0xbd42a625	-0.04752173
89	0xbd1e0a91	-0.038584296
90	0x3d8b3e4e	0.06798993
91	0x3cff6974	0.031178214
92	0x3da9ad49	0.08285005
93	0xbda07753	-0.07835259
94	0xbd1d520c	-0.038408324
95	0xbce5a9fd	-0.028035158
96	0xbd954304	-0.07288173
97	0xbc9022c5	-0.017594704
98	0x3d5e28fa	0.054238297
99	0x3c66d843	0.014089647
100	0xba94841f	-0.0011330879
101	0xbc8e013f	-0.017334579
102	0x3da64df5	0.08120338
103	0xbb7c462c	-0.0038493974
104	0xbda21346	-0.07913832
105	0x3c0bfc3e	0.008544026
106	0x3d10e9ab	0.035379093
107	0x3af809f8	0.0018923869
108	0x3d80cde7	0.06289273
109	0x3c881280	0.016610384
110	0x3910d57f	0.00013812444
111	0xbd2f272a	-0.04276196
112	0x3d5b447a	0.0535321
113	0xbcf75597	-0.03019218
114	0x39951356	0.000284339
115	0xbd5ca432	-0.053867526
116	0xbb52cf74	-0.0032167109
117	0xbcdac7e6	-0.026706647
118	0xbc07d58e	-0.0082906615
119	0xbd6e8972	-0.058236547
120	0x3cb4ac43	0.022054797
121	0x3cbc9ad3	0.023023045
122	0xbb80e1de	-0.0039331755
123	0x3d99ac88	0.07503611
124	0xbc643539	-0.013928705
125	0xbc69e27f	-0.014275192
126	0x3d882a34	0.066486746
127	0x3d358211	0.044313494

weight f4 [2, 128]
0	0x3d41f6c7	0.047354486
1	0xbaed14f0	-0.0018087905
2	0x3d86ccc8	0.06582028
3	0xbd3ddaf0	-0.046351373
4	0xbe16d352	-0.1472905
5	0x3a7d5563	0.00096639077
6	0xb90eef66	-0.00013631358
7	0xba42f9c2	-0.00074377295
8	0x3dcfb271	0.10141457
9	0x391d7617	0.00015016679
10	0x3d9fd9ce	0.07805215
11	0xbc65acc0	-0.014018238
12	0xbc9721ca	-0.018448729
13	0xbb108d15	-0.0022056748
14	0x3c0fcdce	0.008777095
15	0xbd0d81a5	-0.034547467
16	0xbc3dc2b8	-0.011582069
17	0x3c45b307	0.012066609
18	0xbcce547a	-0.025186766
19	0xbd0929cb	-0.033487123
20	0xba8b904f	-0.0010647866
21	0x3d770058	0.060303062
22	0xbda11e39	-0.07867093
23	0xbd7fbea6	-0.062437676
24	0xbc7f79b4	-0.015592981
25	0x3d56afd8	0.05241379
26	0xbbd778b3	-0.0065756678
27	0xbad8f7eb	-0.0016553377
28	0xb9d97aca	-0.0004148095
29	0xbd7a41b6	-0.061097823
30	0x3c38bcda	0.0112754945
31	0xb9b82332	-0.00035121437
32	0xbcf71675	-0.030162076
33	0xbaedf663	-0.0018155094
34	0x3d2f893d	0.04285549
35	0xbd92e790	-0.07173073
36	0x3a7b3b99	0.0009583771
37	0xbcc11ed0	-0.023574263
38	0xbb02e625	-0.0019973603
39	0xbcd53e7e	-0.026030775
40	0xbd2f8cff	-0.042859074
41	0x3d694e33	0.056959342
42	0x3b103758	0.0022005644
43	0x3d4a617f	0.049409386
44	0xbd1e1e1c	-0.038602933
45	0x3a3df9df	0.00072470115
46	0xbcda5477	-0.026651604
47	0xbb09bf43	-0.0021018542
48	0x3b82995f	0.0039855684
49	0xbbe96ddc	-0.007123692
50	0x3a2747cd	0.00063812436
51	0xbe02e544	-0.1278277
52	0xbd91a3be	-0.071113095
53	0xbcf998ae	-0.030468311
54	0x3c690f60	0.014224857
55	0xbb0e0381	-0.002166957
56	0x3c40f7dd	0.011777845
57	0xb95b9f9f	-0.00020944931
58	0x3ad44f85	0.0016198015
59	0x3a03de6a	0.00050303957
60	0x3c9b398e	0.018948343
61	0x3d3f1a19	0.046655748
62	0x3a883067	0.0010390402
63	0x3d079a81	0.03310633
64	0x3b2a2b10	0.0025965609
65	0xbb9908ee	-0.004670254
66	0xbc723ff0	-0.014785752
67	0xbcc93487	-0.02456118
68	0xbc4666ca	-0.012109468
69	0x3a707515	0.000917272
70	0x3d63e9bc	0.05564283
71	0xbc707373	-0.014675963
72	0x3d98dfbe	0.074645504
73	0xbc2e2607	-0.010629184
74	0xbb5e1c32	-0.0033891317
75	0x3d271cff	0.040799137
76	0x3d1fbc93	0.038998198
77	0xbc680245	-0.014160697
78	0x3a7a7f32	0.0009555697
79	0xbbdf850b	-0.00682128
80	0xb97eedfc	-0.00024311984
81	0xbdc8b5d3	-0.09800305
82	0xbda3b534	-0.07993546
83	0xbc9f4b53	-0.019445097
84	0xbbaf93ca	-0.005358194
85	0x3af95c35	0.0019024672
86	0xbcb91981	-0.022595169
87	0xbc899098	-0.01679258
88	0xbd540b39	-0.051768515
89	0xbaa7a3af	-0.001278987
90	0xbd7e0c03	-0.062023174
91	0x39dbc40f	0.0004191701
92	0x3d8234b6	0.0635771
93	0x3d7e3398	0.062060922
94	0x3d8d91c3	0.069125675
95	0x3cb43d1d	0.022001797
96	0xbe062ecc	-0.13103789
97	0xbd725bd2	-0.059169598
98	0xba6d06d8	-0.00090418523
99	0x38edd35a	0.00011340408
100	0xbd912403	-0.07086947
101	0x3c07e561	0.008294434
102	0x3d976676	0.0739259
103	0x3cbb32d0	0.022851378
104	0xbda12ebc	-0.07870242
105	0x3ca4126e	0.02002832
106	0x3cbf1071	0.02332327
107	0x39c69e89	0.0003788362
108	0x3c5d13fb	0.013493533
109	0xbd360342	-0.0444367
110	0x3b2d5e87	0.0026454048
111	0x39ad015e	0.0003299815
112	0x3b6758f5	0.0035300825
113	0xbbffda79	-0.0078080264
114	0xbc942025	-0.018081734
115	0xbcb2c008	-0.021820083
116	0xbcd21bb5	-0.025647977
117	0xbd1752f2	-0.036944337
118	0x3aa22063	0.0012369271
119	0xbda76b3e	-0.08174752
120	0xbde052ea	-0.109533146
121	0xbc6415ad	-0.0139211835
122	0xba4ba6da	-0.0007768698
123	0x3d817f70	0.06323135
124	0xba9dd1b8	-0.001204065
125	0xba04b7d1	-0.0005062791
126	0xbd25b4e5	-0.040455718
127	0x3c360a9e	0.01111093
128	0x3d8158e5	0.063157834
129	0x3c07816d	0.008270604
130	0xbc4860fa	-0.012230152
131	0xbd9cc7c4	-0.0765529
132	0x3cadf489	0.021234768
133	0xbb54c16e	-0.0032463926
134	0xbdd5a51e	-0.10431884
135	0xbaa2dcd2	-0.0012425429
136	0xbcb73139	-0.022362338
137	0xbc4d3a89	-0.012526163
138	0x3e122ee8	0.14275706
139	0x3c72f972	0.01482998
140	0x3cb38883	0.02191568
141	0x3a960e72	0.0011448397
142	0xbc8fba1b	-0.017544797
143	0xbbd3f1c4	-0.0064680297
144	0x3a42b110	0.0007426897
145	0xbc3007ad	-0.010744018
146	0x3ce308d2	0.027714167
147	0x3d7db4d3	0.061940026
148	0xbaa1a5ae	-0.0012332702
149	0x3d82a3c9	0.06378896
150	0xbd167c89	-0.03673986
151	0xbbf156fe	-0.0073651066
152	0x3cb09a50	0.021557957
153	0xbd3a9aef	-0.045557912
154	0x3cbfd256	0.023415726
155	0x3b3f713e	0.0029211785
156	0x3b8c9be6	0.0042910455
157	0x3d439e97	0.047758665
158	0xbd9b1922	-0.07573153
159	0xbb7d597a	-0.0038658069
160	0xbd02d29f	-0.031939145
161	0xbc7846bb	-0.015153582
162	0x3d4ebeb6	0.050474845
163	0x3c462451	0.012093619
164	0x390d3172	0.00013465228
165	0xbc39dec2	-0.0113446135
166	0xbd244cd1	-0.04011232
167	0x3c965be0	0.018354356
168	0x3d7d51da	0.061845638
169	0xbd97d9ef	-0.074146144
170	0xbb60873d	-0.0034260296
171	0xbd93482a	-0.071914986
172	0x3d4094e5	0.047016997
173	0x3a7cdeba	0.0009646226
174	0xbccc1248	-0.02491106
175	0x39af7642	0.0003346671
176	0x39d9f7e0	0.00041574147
177	0x3d674f39	0.056472037
178	0x3b24d269	0.0025149828
179	0x3debc1dc	0.11511585
180	0x3d638f74	0.05555673
181	0x3da4117c	0.080111474
182	0xbd9ee926	-0.07759313
183	0xbaa36adb	-0.0012467758
184	0xbbec1afc	-0.007205365
185	0x3a6a3e6a	0.0008935692
186	0x3b25ee23	0.0025318942
187	0x3ae98794	0.0017816895
188	0x3afda392	0.0019351116
189	0x3db58c61	0.08864666
190	0x3bbc858b	0.0057532242
191	0x3ca14f15	0.01969103
192	0xbcb1fdaa	-0.021727402
193	0x3c4986fa	0.012300247
194	0x3cb29360	0.02179879
195	0x3d1fa163	0.03897227
196	0xbcccfa5f	-0.02502173
197	0x3a1486dd	0.0005665848
198	0x3c6cfbd6	0.014464339
199	0xbcb44bff	-0.022008894
200	0x3cf3d3de	0.029764112
201	0xbd275e21	-0.040861253
202	0x3c674580	0.014115691
203	0xbcad8682	-0.021182302
204	0xbd28d520	-0.041218877
205	0xbd6e34d1	-0.05815584
206	0x3c31f35c	0.010861244
207	0x3da71cd6	0.08159797
208	0xba938515	-0.0011254871
209	0xbc844754	-0.016147293
210	0xbd9012c3	-0.070348285
211	0x3cedf2b5	0.029046396
212	0x3c00e036	0.007865956
213	0x3a216a6e	0.0006157522
214	0x3d83d486	0.0643702
215	0xbca4e4a3	-0.020128554
216	0x3d87edec	0.06637177
217	0xbad8a9e8	-0.0016530128
218	0x3dae2e96	0.08504979
219	0xbb7a429a	-0.003818667
220	0x3d3b49fc	0.045724854
221	0x3ca3b795	0.019985
222	0xbdd20691	-0.10255159
223	0x3cdf9e8d	0.027297283
224	0x3dc1603d	0.09442184
225	0xbdacd41e	-0.08438896
226	0xbb87aef7	-0.0041407305
227	0x3a4bf1dc	0.00077798753
228	0x3db2fe1d	0.087398745
229	0x3d1d1bdc	0.038356647
230	0x3d5fadc3	0.05460907
231	0x3dd0eaa5	0.10201005
232	0xbce5fd51	-0.028074892
233	0xbd2e86e8	-0.042609125
234	0xbd46f1cf	-0.04857045
235	0x3b544c02	0.0032393937
236	0x3d941142	0.07229854
237	0xbd813e2b	-0.06310686
238	0xbc25c658	-0.01011809
239	0xbd12ccf8	-0.035840005
240	0xbcb6f6aa	-0.022334415
241	0x3bdd143c	0.006746797
242	0x3adba289	0.0016756813
243	0x3d00f27d	0.031481255
244	0x3c484eae	0.01222579
245	0xbd0c75c6	-0.034292005
246	0x3acd07cf	0.0015642586
247	0xbd445423	-0.0479318
248	0x3dd00603	0.10157397
249	0xbcb87634	-0.022517301
250	0x3affa212	0.0019503257
251	0xbdf828ad	-0.12117133
252	0x3a876456	0.0010329585
253	0xbb953523	-0.0045534535
254	0xbccf0fae	-0.025276031
255	0x3c744d0f	0.01491095

bias f4 [2]
0	0x3cf3e37d	0.02977156
1	0x3d2f5c0d	0.042812396
